best_model.pth (torch, 993646 bytes, 271 tensors)

backbone.conv1.conv.conv.weight f4 [8, 3, 3, 3]
0.23613697 0.14973035 0.061531175 0.29155642 -0.062300567 0.13766512 -0.0020538191 0.019176813
0.1888142 -0.16263252 0.1335305 0.026061164 0.12800306 0.021591885 0.092645 -0.024052262
0.1515654 0.041397784 -0.14384913 0.041911785 -0.11956831 -0.08852327 -0.06798137 0.0881437
-0.2109082 -0.05814532 -0.07059034 -0.11239378 -0.050545067 -0.1689908 0.16915585 -0.19974849
0.15626694 0.081122875 -0.06681065 0.17048822 -0.014043078 0.14338091 -0.018912978 -0.06989013
0.058824506 -0.07782366 0.110909544 0.20084101 0.10088606 -0.073811784 0.20322494 -0.0038536184
0.04765829 -0.09135475 -0.257329 -0.08426751 -0.091154516 0.10838175 0.044501893 0.09766413
0.093557246 0.005660786 0.16513817 -0.09740913 -0.05217804 -0.18583313 -0.001457533 -0.120297246
-0.04797096 -0.10472206 0.15504101 -0.12758766 -0.10291597 -0.034637164 0.22892593 0.12145265
0.18496093 -0.18697245 -0.20443535 -0.12846294 -0.13813314 0.07548078 0.10392406 0.16678724
-0.056739785 -0.17502074 0.120825194 -0.11536805 0.051527735 -0.022720898 0.05880217 -0.19696175
-0.067318745 0.010832435 0.07825118 -0.04768402 0.13845956 0.14526112 -0.1567336 -0.09145901
0.17849775 -0.09424598 -0.06255985 -0.120252095 -0.13952312 0.1447374 0.00066297606 -0.20680426
0.072160006 -0.13429506 -0.2678558 -0.06136843 -0.1286918 -0.11816484 0.28144434 0.06115494
0.05657015 -0.06946572 -0.058435652 -0.018698573 0.15339172 -0.10078215 -0.057153814 -0.1592145
-0.090531096 -0.21214238 -0.19348834 -0.16888297 -0.21561538 -0.1460437 -0.013247061 -0.046600487
0.17538583 -0.033313964 0.19854076 0.037627727 -0.16877675 0.14297757 -0.07849176 -0.13400523
-0.18097138 -0.13716848 -0.009022649 -0.06371166 0.11550557 -0.22420196 0.099147975 -0.11070281
-0.0070589534 0.06538191 0.14655323 0.18220434 0.19510925 -0.08131247 0.052138098 -0.09321391
0.003418111 -0.047636926 0.20006196 -0.11569365 0.21917687 0.12137096 0.10830916 -0.00962182
0.16602384 0.047819827 0.083466366 -0.21760659 0.07708122 0.024946617 -0.14051577 0.17213668
0.11011069 -0.12804045 -0.03199035 0.06034902 0.106567234 -0.0016210789 -0.10131369 -0.10634605
-0.12480643 0.049670126 0.10201265 -0.15882355 0.0053430023 0.18852338 0.08009115 -0.1023007
0.16810012 0.10617602 0.035205718 0.012264136 -0.0687953 -0.0067718215 -0.06662788 -0.1272122
0.18824367 0.18469001 -0.024066204 -0.017901462 -0.012862173 -0.04202097 0.06601117 0.047334123
-0.18002251 -0.0010835113 0.19731256 0.11080039 -0.023372069 -0.13468869 -0.15068752 -0.18278205
-0.085298106 0.079035155 0.11693523 0.092623346 -0.12281805 -0.13712868 -0.041105364 0.17902945
00000000: e4cd 713e ea52 193e 1d08 7c3d e246 953e
00000010: e12e 7fbd 16f8 0c3e 5e99 06bb b118 9d3c
00000020: 8258 413e 2489 26be 38bc 083e 397e d53c
00000030: 3c13 033e 77e1 b03c a9bc bd3d 4009 c5bc
00000040: f633 1b3e b990 293d 304d 13be b1ab 2b3d
00000050: 3be0 f4bd b04b b5bd d139 8bbd af84 b43d
00000060: 52f8 57be c929 6ebd ab91 90bd b62e e6bd
00000070: 5808 4fbd ed0b 2dbe 3137 2d3e de8a 4cbe
00000080: 7104 203e c023 a63d 06d4 88bd 7794 2e3e
00000090: f014 66bc 72d2 123e 64ef 9abc 8e22 8fbd
000000a0: f7f1 703d 0362 9fbd 8b24 e33d 44a9 4d3e
000000b0: 5a9d ce3d a22a 97bd 331a 503e fd8c 7cbb
000000c0: 5735 433d 3318 bbbd a0c0 83be 7294 acbd
000000d0: 38af babd 40f7 dd3d 9e47 363d 2204 c83d
000000e0: f19a bf3d 1d7e b93b fb19 293e 707e c7bd
000000f0: a4b8 55bd 0a4b 3ebe b10a bfba 675e f6bd
00000100: 337d 44bd 8578 d6bd 12c3 1e3e 57a6 02be
00000110: 9cc5 d2bd b3df 0dbd 8f6b 6a3e 2bbc f83d
00000120: 6666 3d3e b575 3fbe 8057 51be ca8b 03be
00000130: c672 0dbe ab95 9a3d 23d6 d43d 46ca 2a3e
00000140: fa67 68bd a338 33be 3373 f73d 1646 ecbd
00000150: bf0e 533d 2d21 babc 8bda 703d 57b0 49be
00000160: 69de 89bd 877a 313c 2842 a03d 5250 43bd
00000170: 58c8 0d3e 55bf 143e c67e 20be dd4e bbbd
00000180: 1dc8 363e 0904 c1bd 611f 80bd bb46 f6bd
00000190: 26df 0ebe 0a36 143e 92cb 2d3a 7fc4 53be
000001a0: a0c8 933d a584 09be 6524 89be 765d 7bbd
000001b0: c9c7 03be 6800 f2bd 7919 903e 9a7d 7a3d
000001c0: 1ab6 673d 0b44 8ebd 395a 6fbd c02d 99bc
000001d0: b812 1d3e df66 cebd 1e1a 6abd 2009 23be
000001e0: 5e68 b9bd da3b 59be cf21 46be a8ef 2cbe
000001f0: 47ca 5cbe 7b8c 15be 330a 59bc 27e0 3ebd
00000200: 5898 333e 3974 08bd 454e 4b3e 881f 1a3d
00000210: d0d3 2cbe b668 123e 4ac0 a0bd ab38 09be
00000220: 9050 39be e575 0cbe bcd3 13bc 427b 82bd
00000230: 2f8e ec3d 3395 65be 180e cb3d 28b8 e2bd
00000240: cb4e e7bb f3e6 853d 0d12 163e c693 3a3e
00000250: b8ca 473e 2787 a6bd c28e 553d efe6 bebd
00000260: 6302 603b f01e 43bd 0bdd 4c3e cbf0 ecbd
00000270: e76f 603e 5691 f83d 31d1 dd3d d7a4 1dbc
00000280: 2702 2a3e b9de 433d 6af0 aa3d 43d4 5ebe
00000290: c2dc 9d3d d95c cc3c 5ee3 0fbe 9944 303e
000002a0: b781 e13d 091d 03be 5008 03bd 8930 773d
000002b0: ec3f da3d 627a d4ba 8d7d cfbd f5cb d9bd
000002c0: 839a ffbd e772 4b3d 02ec d03d a4a2 22be
000002d0: 5a14 af3b 460c 413e d406 a43d 0883 d1bd
000002e0: 7022 2c3e d072 d93d df33 103d 84ef 483c
000002f0: 8de4 8cbd 28e6 ddbb 3374 88bd ea43 02be
00000300: f3c2 403e 611f 3d3e 7d26 c5bc 16a6 92bc
00000310: ddbb 52bc 2e1e 2cbd dd30 873d 6de1 413d
00000320: d257 38be 9b04 8eba 4e0c 4a3e 51eb e23d
00000330: c876 bfbc d5eb 09be d44d 1abe 382b 3bbe
00000340: c6b0 aebd 2fdd a13d bd7b ef3d 4fb1 bd3d
00000350: 0888 fbbd 766b 0cbe 195e 28bd 7f53 373e

backbone.conv1.bn.bn.weight f4 [8]
0.9415865 1.050615 0.90682775 0.9268443 0.8657007 0.956433 0.96810293 0.9238108
00000000: d00b 713f 8d7a 863f dd25 683f ab45 6d3f
00000010: 909e 5d3f cbd8 743f 98d5 773f dd7e 6c3f

backbone.conv1.bn.bn.bias f4 [8]
-0.08322754 0.0011685783 -0.015220812 -0.10450463 -0.13599262 0.002010048 -0.044299692 -0.0596001
00000000: 3373 aabd fb2a 993a b660 79bc 8606 d6bd
00000010: a641 0bbe 02bb 033b 9873 35bd 3c1f 74bd

backbone.conv1.bn.bn.running_mean f4 [8]
-0.07253832 0.038812693 -0.24643734 -1.0145917 -0.7932302 1.0593921 0.38902965 -0.1523741
00000000: f98e 94bd 0ffa 1e3d 125a 7cbe 24de 81bf
00000010: 2211 4bbf 299a 873f e52e c73e f507 1cbe

backbone.conv1.bn.bn.running_var f4 [8]
6.5927124 0.5479548 0.14176165 1.3665911 4.08598 2.021722 0.4940326 0.10953239
00000000: 80f7 d240 c446 0c3f f729 113e 75ec ae3f
00000010: 59c0 8240 e563 0140 d7f1 fc3e 8552 e03d

backbone.conv2.conv.conv.weight f4 [16, 8, 3, 3]
0.018017957 -0.047791556 0.010770278 -0.028522061 -0.09402275 0.04551206 -0.03050525 -0.03672451
-0.14417122 0.14230122 0.14472064 0.10399258 -0.11350869 -0.1778682 -0.21194533 0.11634719
-0.014959307 0.038571596 0.1718338 0.10624815 0.06276422 -0.11009384 -0.28579566 -0.20247771
0.105107576 -0.0055282833 -0.0020424568 -0.0550713 -0.04292432 -0.111313336 -0.04073952 0.053262427
-0.0651015 0.047659855 -0.0056073945 -0.16946502 -0.042410422 -0.07903708 -0.020662839 -0.13064037
0.04674783 -0.060949832 0.05996298 0.06756621 0.097480305 -0.08529222 0.118156075 -0.07122852
0.07809075 0.16253056 0.009655271 -0.034513652 -0.033315994 -0.1033793 -0.03160015 -0.1141653
-0.04758047 0.07446175 0.10932554 -0.13492365 -0.039041422 0.094169304 0.0259068 -0.12386523
-0.021743739 -0.14555883 -0.07642135 -0.06404167 -0.106637366 0.044842586 0.09493875 0.1397444
0.101206176 -0.07243294 -0.064893045 -0.094166525 -0.17630969 -0.18671244 0.013365436 -0.08166998
-0.089058556 0.021821788 -0.13954422 -0.058931366 -0.021573355 -0.09781176 -0.088546954 0.03229729
-0.030816184 0.16595958 -0.038252033 0.15248646 0.003633925 0.06535759 0.22172621 0.026332634
-0.115909286 -0.0040705986 0.065173745 0.045113847 0.23467866 0.102085374 -0.05141071 0.06359489
-0.118805766 -6.659714e-05 0.20267734 0.17037489 -0.10127262 -0.08785715 -0.057830755 -0.18143831
-0.10296131 -0.031193495 0.00502311 -0.015452237 -0.100850016 -0.053859375 -0.056094456 -0.09354473
0.038283844 -0.030986361 -0.08130445 0.04686663 -0.10811055 -0.091553755 -0.08152025 -0.18812487
-0.13707244 -0.0111183915 0.11808272 -0.016443633 0.0002521891 0.00064369163 0.057384793 0.08696573
0.09540055 0.024104727 -0.07085976 0.017370941 0.06370165 -0.053281058 -0.06618995 0.024566004
0.04956387 -0.06318545 -0.095205665 0.100783736 0.082106635 0.061561376 0.045553535 -0.05671099
-0.08251897 -0.058984313 0.19737633 0.06679186 -0.11589736 -0.043047715 -0.12794036 -0.020960266
0.10464009 0.10605964 0.11955383 -0.08440475 0.12053371 -0.14044221 0.039309107 0.13417007
-0.09826475 0.16218707 -0.085172415 0.09208831 0.059691828 0.022742374 0.014933747 -0.036999885
0.07018287 0.10488301 0.06589574 -0.01815984 -0.044735976 0.04879991 0.06901319 -0.07999907
-0.07556603 0.04409846 -0.060209695 -0.08263721 -0.06792005 -0.24500564 -0.046349008 -0.080175735
-0.10591029 0.0885128 0.04197112 -0.051635116 0.13377564 0.06469649 0.038590446 0.026435386
-0.0731504 0.056766395 -0.07899792 -0.058431372 -0.039075993 -0.08993213 -0.120410696 0.078275815
0.14312252 0.0074605444 -0.08313598 -0.106154904 -0.10331923 -0.06944037 -0.026333565 -0.054882243
0.030188572 0.032407098 -0.13284813 0.13052234 -0.10946489 -0.06861153 0.006307609 -0.07052825
-0.113446094 0.10653814 -0.057290282 -0.0854508 0.12932539 -0.12139459 -0.27011073 0.10886646
0.047139045 -0.18274756 -0.048983622 -0.070724644 -0.08010602 -0.039629728 0.02309356 0.08852215
-0.042804338 0.1414858 0.09031926 -0.12025716 0.08565691 0.13583967 -0.05144878 0.0060507716
0.13037069 -0.16233623 -0.053379893 -0.028375184 0.117330074 0.10434456 0.096395485 0.0794222
00000000: 659a 933c 14c1 43bd d275 303c 19a7 e9bc
00000010: 008f c0bd db6a 3a3d 25e6 f9bc 716c 16bd
00000020: 9fa1 13be 69b7 113e a631 143e 10fa d43d
00000030: 3e77 e8bd 1523 36be 3208 59be 7047 ee3d
00000040: e217 75bc 40fd 1d3d 33f5 2f3e a198 d93d
00000050: 878a 803d e178 e1bd cf53 92be 5156 4fbe
00000060: a442 d73d 9a26 b5bb bdda 05bb 7292 61bd
00000070: 69d1 2fbd 3ff8 e3bd 7cde 26bd b429 5a3d
00000080: ef53 85bd fb36 433d 3cbe b7bb 3d88 2dbe
00000090: 8db6 2dbd 31de a1bd 1d45 a9bc 97c6 05be
000000a0: a77a 3f3d 88a6 79bd be9b 753d 2760 8a3d
000000b0: c1a3 c73d b0ad aebd d0fb f13d 42e0 91bd
000000c0: 0bee 9f3d 696e 263e 2431 1e3c 305e 0dbd
000000d0: 5a76 08bd 87b8 d3bd 296f 01bd 7fcf e9bd
000000e0: bde3 42bd 677f 983d 12e6 df3d 6d29 0abe
000000f0: e6e9 1fbd d6db c03d 7f3a d43c 0ead fdbd
00000100: ed1f b2bc 600d 15be cc82 9cbd 4728 83bd
00000110: b164 dabd dcac 373d 3f6f c23d 2819 0f3e
00000120: 2f45 cf3d b957 94bd a5e6 84bd 61da c0bd
00000130: 878a 34be 8c31 3fbe b4fa 5a3c 9742 a7bd
00000140: 5564 b6bd 9bc3 b23c aee4 0ebe 0462 71bd
00000150: 9bba b0bc 8851 c8bd 1b58 b5bd 2a4a 043d
00000160: 3972 fcbc 4ff1 293e 2aae 1cbd 6925 1c3e
00000170: 2527 6e3b 33da 853d 320c 633e 89b7 d73c
00000180: d961 edbd a862 85bb d079 853d 4cc9 383d
00000190: 9a4f 703e 2312 d13d 0994 52bd 0a3e 823d
000001a0: 7050 f3bd 11aa 8bb8 a68a 4f3e c176 2e3e
000001b0: 0568 cfbd 73ee b3bd f1df 6cbd f7ca 39be
000001c0: 61dd d2bd 8089 ffbc e798 a43b 612b 7dbc
000001d0: 748a cebd a69b 5cbd 4dc3 65bd 6194 bfbd
000001e0: 85cf 1c3d 1cd7 fdbc f382 a6bd 39f7 3f3d
000001f0: 1069 ddbd 8980 bbbd 17f4 a6bd cea3 40be
00000200: b85c 0cbe ea29 36bc 5ad5 f13d ccb4 86bc
00000210: 3f38 8439 6abd 283a 510c 6b3d 171b b23d
00000220: 5d61 c33d 4777 c53c ec1e 91bd 814d 8e3c
00000230: 0376 823d 3d3d 5abd 998e 87bd a53e c93c
00000240: 7c03 4b3d 6067 81bd 30fb c2bd b467 ce3d
00000250: 8627 a83d c827 7c3d 5896 3a3d c849 68bd
00000260: b5ff a8bd 8999 71bd 051d 4a3e 2cca 883d
00000270: 985b edbd cd52 30bd cc02 03be ddb4 abbc
00000280: 8b4d d63d cc35 d93d a3d8 f43d 66dc acbd
00000290: 61da f63d 15d0 0fbe 9602 213d e163 093e
000002a0: 073f c9bd 5e14 263e e06e aebd cc98 bc3d
000002b0: 6b7f 743d 374e ba3c adac 743c 318d 17bd
000002c0: 09bc 8f3d e7cc d63d 59f4 863d f2c3 94bc
000002d0: 123d 37bd 6ae2 473d ca56 8d3d 8dd6 a3bd
000002e0: 5dc2 9abd 96a0 343d 719e 76bd b33d a9bd
000002f0: ab19 8bbd c2e2 7abe 75d8 3dbd 2d33 a4bd
00000300: 7ee7 d8bd 3346 b53d e9e9 2b3d 587f 53bd
00000310: 7bfc 083e 987f 843d 0411 1e3d 068f d83c
00000320: e0cf 95bd e183 683d a9c9 a1bd bc55 6fbd
00000330: 260e 20bd 562e b8bd e299 f6bd 124f a03d
00000340: b68e 123e 9577 f43b 3243 aabd be67 d9bd
00000350: 0899 d3bd c136 8ebd 7db9 d7bc 34cc 60bd
00000360: 064e f73c 4ebd 043d 5709 08be a6a7 053e
00000370: 212f e0bd 3484 8cbd 0fb0 ce3b 1d71 90bd
00000380: 6d56 e8bd ab30 da3d 37a9 6abd d400 afbd
00000390: e06d 043e ba9d f8bd f44b 8abe 61f5 de3d
000003a0: df14 413d 2d22 3bbe 0da3 48bd 15d8 90bd
000003b0: a00e a4bd c852 22bd b52e bd3c 1a4b b53d
000003c0: 9a53 2fbd a7e1 103e 4ef9 b83d 6349 f6bd
000003d0: e46c af3d 8e19 0b3e f5bb 52bd 8d45 c63b
000003e0: e57f 053e 783b 26be e0a4 5abd 1373 e8bc
000003f0: c04a f03d 9ab2 d53d ff6a c53d 1ba8 a23d

backbone.conv2.bn.bn.weight f4 [16]
0.9908183 0.93391687 0.8985603 1.0324576 0.9502802 0.95700693 0.981455 0.9227967
0.8962419 0.9301537 0.92587394 0.93971163 0.9905426 0.91055846 0.93517876 0.8817052
00000000: 45a6 7d3f 2d15 6f3f 0c08 663f 9227 843f
00000010: 9045 733f 68fe 743f a340 7b3f 683c 6c3f
00000020: 1c70 653f 8e1e 6e3f 1306 6d3f f190 703f
00000030: 3394 7d3f 5c1a 693f e067 6f3f 6fb7 613f

backbone.conv2.bn.bn.bias f4 [16]
0.0029737442 0.021202952 0.07938289 0.037842035 -0.016599169 -0.03141217 -0.032553364 0.01926827
-0.008492504 0.025030697 -0.033216048 0.02293197 -0.014922008 -0.012945157 -0.03120869 0.016611831
00000000: 26e3 423b d0b1 ad3c 7f93 a23d 4000 1b3d
00000010: fbfa 87bc 0caa 00bd ad56 05bd 7ed8 9d3c
00000020: 2524 0bbc 2d0d cd3c 8d0d 08bd d4db bb3c
00000030: 707b 74bc ec17 54bc 5ea9 ffbc 8915 883c

backbone.conv2.bn.bn.running_mean f4 [16]
-0.17696199 -0.18072051 -0.04155349 -0.12119231 0.10780453 -0.11047131 0.14368652 0.2453766
0.013319758 0.29746652 -0.35145107 -0.18258101 0.043260172 0.27936906 0.25066003 0.057758868
00000000: 8635 35be cc0e 39be fe33 2abd ac33 f8bd
00000010: 9fc8 dc3d c83e e2bd 8f22 133e 0144 7b3e
00000020: 1d3b 5a3c 884d 983e 65f1 b3be 84f6 3abe
00000030: 9431 313d 7609 8f3e 8356 803e 9094 6c3d

backbone.conv2.bn.bn.running_var f4 [16]
0.19695373 0.25574577 0.16755044 0.2517423 0.2420871 0.22186705 0.08903681 0.19087137
0.5024022 0.25285593 0.3027891 0.3775866 0.14189309 0.3583615 0.17888127 0.30480105
00000000: 3dae 493e 1cf1 823e 5892 2b3e 5ee4 803e
00000010: aee5 773e 1e31 633e ee58 b63d c973 433e
00000020: 6e9d 003f 5576 813e 2c07 9b3e 0853 c13e
00000030: 6c4c 113e 297b b73e a72c 373e e20e 9c3e

backbone.csp1.conv1.conv.weight f4 [8, 16, 1, 1]
0.22811389 0.1578329 -0.053362384 0.21691921 -0.027113797 -0.22417493 0.044110306 0.12454992
0.22547938 0.029134952 0.105733156 0.15961991 0.25981617 -0.22667168 0.30839312 -0.17048995
0.17565091 -0.07952557 -0.1327134 0.06610813 -0.08532891 -0.2431523 -0.17240122 0.06391315
0.19541913 -0.10328236 0.215433 0.002485949 0.03680391 0.020570086 -0.12599608 -0.23990008
-0.03693379 -0.245407 -0.1270675 0.03691584 -0.11574333 -0.2114908 -0.06671019 -0.055940382
-0.18050689 0.071794264 -0.0702683 0.051341422 -0.020117685 -0.12017706 -0.10151224 0.03446942
-0.19876495 -0.026356298 -0.027499724 0.1521188 0.06217484 0.15264866 -0.043991 -0.25891152
0.064593695 -0.15554178 0.015584933 -0.02284964 -0.10754468 -0.07319823 0.2606176 0.13451943
0.087446794 0.28953156 -0.15129873 0.124270804 0.1656613 0.22634016 -0.22964747 0.09345359
-0.088536836 -0.03118623 -0.10510989 -0.24793462 -0.16354267 -0.16027524 0.054905824 0.082186125
-0.23319389 -0.036505762 -0.048696484 -0.2902307 0.045279264 0.20987655 -0.049640045 -0.20414285
0.05630955 0.11559904 0.18108042 -0.19067754 -0.23215728 0.09825609 0.091801494 -0.051053263
0.019395525 -0.10042104 0.22442688 0.04387495 0.2034771 0.19775024 0.08789726 0.081039436
0.051219437 0.20404613 -0.1922341 0.17499447 -0.0033016785 0.17445338 -0.015110399 -0.1393796
-0.012405692 0.10814315 -0.20827697 -0.26097876 -0.06372797 -0.08586591 0.09942702 0.118056536
-0.04295527 0.29991454 -0.20710249 -0.07652884 -0.05936289 -0.18471397 -0.14075239 -0.15514374
00000000: b096 693e f39e 213e 8492 5abd 1220 5e3e
00000010: c11d debc 1d8e 65be 02ad 343d 0714 ff3d
00000020: 11e4 663e 6cac ee3c a08a d83d 6773 233e
00000030: a006 853e 9f1c 68be b4e5 9d3e eb94 2ebe
00000040: d5dd 333e 4dde a2bd 06e6 07be b363 873d
00000050: ecc0 aebd ebfc 78be f289 30be e6e4 823d
00000060: f41b 483e b485 d3bd 789a 5c3e 4eeb 223b
00000070: b2bf 163d 9982 a83c 1e05 01be 5ea8 75be
00000080: e347 17bd f94b 7bbe fc1d 02be 1035 173d
00000090: d70a edbd 0b91 58be 5a9f 88bd be21 65bd
000000a0: ccd6 38be df08 933d d4e8 8fbd 624b 523d
000000b0: d8cd a4bc 641f f6bd a6e5 cfbd ce2f 0d3d
000000c0: 0a89 4bbe 2ae9 d7bc 1a47 e1bc 08c5 1b3e
000000d0: 0cab 7e3d ee4f 1c3e e82f 34bd 0d90 84be
000000e0: b349 843d 5846 1fbe f257 7f3c 2b2f bbbc
000000f0: 6340 dcbd f4e8 95bd ac6f 853e 76bf 093e
00000100: 4e17 b33d 7b3d 943e 0eee 1abe b181 fe3d
00000110: 1ea3 293e b7c5 673e b528 6bbe 9964 bf3d
00000120: cd52 b5bd 447a ffbc db43 d7bd 93e2 7dbe
00000130: bb77 27be 311f 24be eee4 603d 3351 a83d
00000140: 61ca 6ebe 1187 15bd f775 47bd 1e99 94be
00000150: c076 393d e1e9 563e 5c53 4bbd d30a 51be
00000160: d8a4 663d 31bf ec3d 256d 393e f940 43be
00000170: a3ba 6dbe 7d3a c93d 6c02 bc3d 3a1d 51bd
00000180: 5de3 9e3c 8ca9 cdbd 29d0 653e 38b6 333d
00000190: 4d5c 503e 0a7f 4a3e 7b03 b43d 01f8 a53d
000001a0: 79cb 513d 78f1 503e 04d9 44be c031 333e
000001b0: f960 58bb e8a3 323e 9b91 77bc 87b9 0ebe
000001c0: 3e41 4bbc 287a dd3d 8f46 55be 029f 85be
000001d0: cf83 82bd 77da afbd 65a0 cb3d a0c7 f13d
000001e0: ddf1 2fbd 668e 993e ad12 54be 27bb 9cbd
000001f0: 8026 73bd a925 3dbe 6521 10be 00de 1ebe

backbone.csp1.bn1.bn.weight f4 [8]
0.9342442 0.9321369 0.9828592 0.9831812 0.9210786 0.95140195 0.8909197 0.97929585
00000000: a12a 6f3f 86a0 6e3f a99c 7b3f c3b1 7b3f
00000010: cfcb 6b3f 148f 733f 5013 643f 22b3 7a3f

backbone.csp1.bn1.bn.bias f4 [8]
-0.022015963 -0.010653068 0.017506586 0.090010315 -0.038724344 0.067918025 -0.07402592 0.15603612
00000000: d25a b4bc 358a 2ebc f969 8f3c 5457 b83d
00000010: 6b9d 1ebd 9b18 8b3d e79a 97bd efc7 1f3e

backbone.csp1.bn1.bn.running_mean f4 [8]
0.21795748 -0.06923291 -0.20273665 -0.015104989 0.00010417601 -0.123029545 0.19600178 -0.1675016
00000000: 3f30 5f3e fcc9 8dbd 329a 4fbe ea7a 77bc
00000010: 1279 da38 eaf6 fbbd b1b4 483e 8a85 2bbe

backbone.csp1.bn1.bn.running_var f4 [8]
0.22529039 0.117556594 0.15711623 0.08206264 0.0713707 0.12284231 0.12083195 0.14159805
00000000: 86b2 663e 83c1 f03d 14e3 203e 7510 a83d
00000010: cd2a 923d c094 fb3d be76 f73d 14ff 103e

backbone.csp1.conv2.conv.weight f4 [8, 16, 1, 1]
-0.3717311 0.10847051 0.08156267 0.18281206 0.14395162 -0.044311985 0.044089466 -0.067157075
0.005542412 -0.2009268 0.11150467 -0.09851829 0.21639326 0.14125825 -0.16392493 0.14139001
0.1435538 0.033714563 -0.014925982 0.14247528 0.29238212 0.06237386 0.21859194 -0.04797299
0.13891992 0.058001306 0.17011501 0.26165804 0.026562545 -0.15889502 -0.07989195 0.04669629
0.07508101 -0.05453545 0.18527712 0.16876988 -0.16711876 -0.06406044 -0.085137755 -0.09954347
0.005339718 -0.019975504 -0.13993412 -0.22040355 -0.2300395 0.23767912 0.09583451 0.2797668
-0.022594951 0.08138454 0.15641615 0.0028796946 -0.22585149 -0.14634953 -0.1481018 -0.03503736
0.09455169 0.09381571 0.2005479 0.05069837 -0.055390738 -0.16447054 -0.18130742 -0.17360257
0.08734867 0.19867589 0.23694259 -0.12301745 -0.022008838 -0.020414138 -0.003819103 0.11911108
-0.005856417 0.025698334 0.028988278 0.106054805 -0.21082379 -0.120715894 0.049264368 -0.055612694
-0.1550334 0.1468686 -0.10872251 0.057042662 -0.1532924 0.04186715 -0.06665574 0.073695816
0.008296647 0.10473319 0.040311135 -0.02083114 -0.014660046 0.3467914 -0.09496408 0.09753298
0.13214555 -0.22646716 0.13550268 -0.19428906 -0.040483914 -0.114662796 -0.13443083 0.12992977
-0.3196551 0.12599112 -0.17693903 -0.097278446 0.012973723 0.12387118 -0.050269976 0.13473542
-0.021974523 0.14013661 0.066892296 -0.008597241 -0.18967955 -0.13698134 0.2745608 -0.2520421
-0.037677504 -0.04305198 0.24712534 -0.08647459 -0.13123353 -0.03979847 0.09678212 0.07303553
00000000: 8a53 bebe c925 de3d 540a a73d 1633 3b3e
00000010: 0e68 133e 7c80 35bd 2897 343d a689 89bd
00000020: 1f9d b53b c1bf 4dbe 8f5c e43d f5c3 c9bd
00000030: 3296 5d3e 01a6 103e f0db 27be 8bc8 103e
00000040: c4ff 123e 4818 0a3d 1b8c 74bc 0ae5 113e
00000050: 1cb3 953e bc7b 7f3d 91d6 5f3e 537f 44bd
00000060: 0641 0e3e c792 6d3d a132 2e3e 0bf8 853e
00000070: b299 d93c 60b5 22be 649e a3bd 9c44 3f3d
00000080: 13c4 993d 9060 5fbd 49b9 3d3e 03d2 2c3e
00000090: 2e21 2bbe 1f32 83bd b45c aebd 72dd cbbd
000000a0: cdf8 ae3b aba3 a3bc e44a 0fbe 78b1 61be
000000b0: 7a8f 6bbe 2862 733e e244 c43d 983d 8f3e
000000c0: 0c19 b9bc f0ac a63d 8e2b 203e 42b9 3c3b
000000d0: 9d45 67be a7dc 15be 00a8 17be 5683 0fbd
000000e0: 51a4 c13d 7322 c03d 6e5c 4d3e 18a9 4f3d
000000f0: 66e1 62bd f76a 28be a7a8 39be dfc4 31be
00000100: dce3 b23d b171 4b3e 14a1 723e 93f0 fbbd
00000110: e14b b4bc 8d3b a7bc ea49 7abb 83f0 f33d
00000120: 30e7 bfbb 5085 d23c d378 ed3c 4333 d93d
00000130: 31e2 57be e539 f7bd 6fc9 493d 23ca 63bd
00000140: 13c1 1ebe b964 163e e8a9 debd 91a5 693d
00000150: aff8 1cbe e47c 2b3d ce82 88bd d5ed 963d
00000160: a9ee 073c 5b7e d63d 4a1d 253d 11a6 aabc
00000170: b130 70bc a48e b13e 877c c2bd 5fbf c73d
00000180: 2a51 073e 02e7 67be 37c1 0a3e b6f3 46be
00000190: 76d2 25bd 54d4 eabd 3ca8 09be 4f0c 053e
000001a0: d5a9 a3be d103 013e 812f 35be ec39 c7bd
000001b0: bd8f 543c 2cb0 fd3d e4e7 4dbd 15f8 093e
000001c0: ea03 b4bc f97f 0f3e d4fe 883d 71db 0cbc
000001d0: 5b3b 42be d644 0cbe 3c93 8c3e aa0b 81be
000001e0: ba53 1abd 4657 30bd 6d0e 7d3e 9719 b1bd
000001f0: 1562 06be b803 23bd b435 c63d a793 953d

backbone.csp1.bn2.bn.weight f4 [8]
0.9574311 0.97396487 0.9038106 0.93727994 0.9554592 0.9277863 1.00482 0.89871824
00000000: 341a 753f c355 793f 2260 673f 94f1 6f3f
00000010: f998 743f 6783 6d3f f19d 803f 6612 663f

backbone.csp1.bn2.bn.bias f4 [8]
0.056796342 -0.032627955 0.09775521 0.1656697 0.09193679 -0.052960895 -0.026619205 -0.08042089
00000000: 48a3 683d e4a4 05bd e233 c83d 51a5 293e
00000010: 5b49 bc3d 86ed 58bd 8510 dabc b5b3 a4bd

backbone.csp1.bn2.bn.running_mean f4 [8]
0.043919414 0.24071604 0.001842976 -0.07017041 0.056557532 0.05403749 -0.10120699 -0.021172076
00000000: d8e4 333d 447e 763e 0390 f13a 81b5 8fbd
00000010: dfa8 673d 6a56 5d3d 9c45 cfbd 1071 adbc

backbone.csp1.bn2.bn.running_var f4 [8]
0.11224612 0.20252718 0.11522478 0.07958293 0.11674364 0.10894318 0.16386692 0.074810445
00000000: 4be1 e53d 4963 4f3e f8fa eb3d 60fc a23d
00000010: 4a17 ef3d 9a1d df3d bbcc 273e 3836 993d

backbone.csp1.conv3.conv.weight f4 [16, 16, 1, 1]
0.20052752 -0.042377383 0.08644617 -0.31658664 0.050521955 0.12560038 0.19027281 -0.15098543
-0.022020282 0.08816084 -0.10772072 -0.17431355 -0.29085204 0.060682572 0.18777412 -0.1062941
-0.00043500596 -0.027670398 -0.255714 0.03554994 -0.05922374 -0.14117901 0.17630969 -0.25367802
0.042582102 -0.1600689 -0.044652876 -0.07287552 0.09959338 -0.16201387 0.26027247 -0.10664046
0.14215645 -0.15374509 0.1637709 -0.15870161 -0.08615922 -0.09855199 0.14185086 0.13415655
-0.26081738 0.08744607 -0.23437674 0.17897502 0.03397084 -0.05540522 -0.06622741 0.04660646
-0.11623743 0.14596945 0.18474309 0.110393055 0.1414997 -0.24614793 0.17951925 -0.085293666
-0.104457006 -0.06701387 0.15117921 0.20287834 -0.007006721 0.15525548 -0.23358145 -0.028253809
-0.31228802 -0.02225767 -0.11108235 -0.17670923 0.13894975 0.2787714 -0.17523874 -0.0980457
-0.15320687 0.0076881675 -0.06551672 -0.065581426 -0.17422272 0.07290261 0.26057842 -0.10533722
0.1082096 -0.04734538 0.20773509 -0.13086234 -0.05750199 0.14362071 0.10879075 0.30034667
-0.19554296 0.04432885 0.09708906 -0.2145017 0.026496833 -0.03852961 0.21444204 -0.1564329
-0.07364606 0.14457229 -0.20126112 -0.23451632 -0.052383862 0.18595222 0.08093058 -0.18501344
0.037286457 -0.16967659 -0.10347311 0.23074427 0.14423802 -0.045703363 -0.11418817 0.049523592
0.11304486 -0.00903635 -0.20471723 0.19369172 -0.06322977 0.10762663 -0.10348568 0.07829809
0.15261993 0.16408521 0.052156977 0.27194387 0.012404547 0.039697584 0.24723153 0.27463043
-0.13415772 0.2237752 0.18812661 -0.06729285 0.23189111 -0.12944144 0.0621204 0.21011746
-0.32526392 -0.20358157 -0.22404423 -0.04286274 -0.23988277 -0.06297819 0.0031900648 0.1241649
0.18113717 0.20266122 0.14612694 -0.17284343 -0.1192912 -0.010956096 0.26228967 -0.045637794
-0.045342367 -0.19480057 -0.10962862 -0.20599191 0.16302769 -0.01614636 -0.20197655 0.08613646
0.06995888 -0.046801854 0.056099664 0.13200285 -0.26024085 -0.20020509 -0.03637803 -0.15645103
-0.20397538 0.23983818 0.04308415 -0.1496042 0.061774116 -0.21901913 0.2596433 -0.058510985
-0.12756902 -0.1813545 0.11240657 -0.065025285 0.037732936 -0.072528675 -0.13383424 0.010120139
0.21234451 -0.1397799 -0.037917968 -0.18501097 -0.15036343 0.24409926 0.029042246 0.23827885
-0.13551976 -0.16363059 -0.11234201 0.22284035 -0.14318316 0.17545426 0.14831598 0.13759495
0.0666364 -0.14185843 0.107602835 -0.14654025 -0.058151953 0.21837294 0.15995449 -0.050583377
-0.080260664 -0.079803914 0.11689336 0.06450503 0.009924381 0.030511409 0.12102775 -0.22333468
-0.080199756 0.14627716 0.22745775 -0.11830674 -0.29493946 -0.0122338515 0.07457472 0.11687333
0.18254514 -0.24733725 0.12997255 -0.014014095 0.2601908 0.15243123 0.037897848 0.17517856
-0.14190595 -0.23181172 -0.22720116 0.18723859 0.09190567 -0.17696507 0.11981865 0.22624752
-0.2110025 0.21185382 0.057821874 0.084117666 0.20749891 0.23073846 0.09187932 0.20372295
0.11630712 0.075764194 -0.23997906 -0.010281693 -0.20916475 0.086076714 -0.07448222 0.024269626
00000000: 1657 4d3e e893 2dbd b10a b13d a517 a2be
00000010: 1cf0 4e3d 639d 003e e0d6 423e ed9b 1abe
00000020: e163 b4bc ac8d b43d ae9c dcbd 407f 32be
00000030: 8fea 94be 4a8e 783d dc47 403e b9b0 d9bd
00000040: 8311 e4b9 08ad e2bc f2ec 82be d09c 113d
00000050: 9894 72bd 3b91 10be 878a 343e 16e2 81be
00000060: 926a 2e3d 1ae9 23be efe5 36bd c33f 95bd
00000070: 9df7 cb3d f7e6 25be 6f42 853e 5066 dabd
00000080: 7691 113e 5a6f 1dbe 8fb3 273e ad82 22be
00000090: 3f74 b0bd a0d5 c9bd 5a41 113e 5660 093e
000000a0: db89 85be ed16 b33d 7500 70be 3a45 373e
000000b0: 0225 0b3d 95f0 62bd 3da2 87bd 6ae6 3e3d
000000c0: e40d eebd 0479 153e 4b2d 3d3e c115 e23d
000000d0: 4ce5 103e 340e 7cbe e5d3 373e 72ae aebd
000000e0: 8eed d5bd 913e 89bd b9ce 1a3e 57bf 4f3e
000000f0: a398 e5bb 4bfb 1e3e fa2f 6fbe 8874 e7bc
00000100: 37e4 9fbe b855 b6bc 257f e3bd 44f3 34be
00000110: d848 0e3e 20bb 8e3e c971 33be 2fcc c8bd
00000120: 43e2 1cbe 06ed fb3b a12d 86bd 8e4f 86bd
00000130: 7167 32be f74d 953d 896a 853e 0abb d7bd
00000140: ff9c dd3d 3bed 41bd 82b8 543e c700 06be
00000150: 3587 6bbd 4f11 133e afcd de3d 0ac7 993e
00000160: 6a3c 48be 2b92 353d a1d6 c63d 55a6 5bbe
00000170: e30f d93c 39d1 1dbd b296 5b3e f22f 20be
00000180: bfd3 96bd c20a 143e 6517 4ebe 0c25 70be
00000190: 7690 56bd 426a 3e3e efbe a53d 2a74 3dbe
000001a0: afb9 183d b3bf 2dbe b6e9 d3bd 3a48 6c3e
000001b0: 22b3 133e 7333 3bbd 7ddb e9bd 40d9 4a3d
000001c0: 1084 e73d 330d 14bc 65a1 51be 1f57 463e
000001d0: 9c7e 81bd 5a6b dc3d 4df0 d3bd c05a a03d
000001e0: 6648 1c3e f405 283e 8ea2 553d 3a3c 8b3e
000001f0: 713c 4b3c ef99 223d 432a 7d3e 5c9c 8c3e
00000200: a460 09be 5325 653e 43a4 403e d5d0 89bd
00000210: dd74 6d3e 4c8c 04be f671 7e3d 0829 573e
00000220: fe88 a6be b077 50be da6b 65be d790 2fbd
00000230: d4a3 75be b6fa 80bd 6810 513b 2b4a fe3d
00000240: 067c 393e 6c86 4f3e 4da2 153e defd 30be
00000250: f24e f4bd 3381 33bc d54a 863e b2ee 3abd
00000260: ebb8 39bd cd79 47be f884 e0bd 8bef 52be
00000270: bbf0 263e 5f45 84bc f1d2 4ebe 5068 b03d
00000280: 9a46 8f3d 4db3 3fbd c3c8 653d c12b 073e
00000290: 4a3e 85be 9002 4dbe 2101 15bd b334 20be
000002a0: ecde 50be 2498 753e 0179 303d d831 19be
000002b0: db06 7d3d 8d46 60be f7ef 843e 37a9 6fbd
000002c0: 74a1 02be feb4 39be 6a35 e63d fa2b 85bd
000002d0: da8d 1a3d ea89 94bd d80b 09be f1ce 253c
000002e0: d770 593e 7622 0fbe df4f 1bbd 8473 3dbe
000002f0: dff8 19be 28f5 793e 01ea ed3c 5fff 733e
00000300: b1c5 0abe c78e 27be 9113 e6bd 4330 643e
00000310: 9b9e 12be 48aa 333e 25e0 173e b1e5 0c3e
00000320: aa78 883d 5643 11be e05e dc3d a60e 16be
00000330: be30 6ebd 289d 5f3e 1ccb 233e 8430 4fbd
00000340: b45f a4bd 3c70 a3bd c965 ef3d 371b 843d
00000350: df99 223c 10f3 f93c 66dd f73d d9b1 64be
00000360: c53f a4bd aec9 153e afea 683e ce4a f2bd
00000370: 4e02 97be 7e70 48bc a1ba 983d 495b ef3d
00000380: 1ded 3a3e fa45 7dbe 8617 053e 609b 65bc
00000390: bb37 853e ef16 1c3e c63a 1b3d 0262 333e
000003a0: cb4f 11be 0d60 6dbe 6ca7 68be 79bb 3f3e
000003b0: 0a39 bc3d 5536 35be 7b63 f53d 6ead 673e
000003c0: 0a11 58be 35f0 583e a1d6 6c3d e245 ac3d
000003d0: 987a 543e b446 6c3e 3a2b bc3d c09c 503e
000003e0: 6d32 ee3d 422a 9b3d 12bd 75be 8c74 28bc
000003f0: 492f 56be fd48 b03d 228a 98bd 18d1 c63c

backbone.csp1.bn3.bn.weight f4 [16]
0.9976853 0.9481903 0.90150183 0.9799563 0.85900754 0.8992851 0.9053366 0.89827317
0.913166 0.8802283 0.93172705 0.8602787 0.839472 0.9706908 0.8869083 0.889519
00000000: 4e68 7f3f 99bc 723f d3c8 663f 6bde 7a3f
00000010: ebe7 5b3f 8c37 663f 24c4 673f 3bf5 653f
00000020: 3fc5 693f a456 613f aa85 6e3f 3a3b 5c3f
00000030: a3e7 563f 317f 783f 6c0c 633f 84b7 633f

backbone.csp1.bn3.bn.bias f4 [16]
0.033026334 -0.06800163 -0.004031623 0.014772603 -0.08126951 0.05751254 0.009073044 -0.0871386
0.007821672 -0.032034714 0.012094865 -0.11873077 -0.057058726 -0.03282819 -0.031079043 -0.051976435
00000000: 9f46 073d 7044 8bbd b41b 84bb ca08 723c
00000010: a170 a6bd 4592 6b3d 1ba7 143c b975 b2bd
00000020: 7826 003c d536 03bd 8a29 463c 1e29 f3bd
00000030: 69b6 69bd da76 06bd 7a99 febc 3ee5 54bd

backbone.csp1.bn3.bn.running_mean f4 [16]
-0.11550162 -0.2769434 -0.068179615 0.10423713 -0.27374455 0.20169671 -0.15329142 0.5449175
-0.19267222 -0.09474467 -0.15620075 -0.11138068 0.12690118 -0.021696812 0.2109702 0.2339495
00000000: 1d8c ecbd 86cb 8dbe c1a1 8bbd 477a d53d
00000010: 3f28 8cbe 9589 4e3e 6df8 1cbe b77f 0b3f
00000020: de4b 45be 7e09 c2bd 17f3 1fbe 8e1b e4bd
00000030: 62f2 013e 83bd b1bc 9208 583e 7590 6f3e

backbone.csp1.bn3.bn.running_var f4 [16]
0.096444346 0.05288232 0.091128096 0.09186597 0.2439979 0.22152828 0.08808428 0.16734605
0.1576019 0.06601449 0.17525032 0.07190135 0.19420214 0.10304677 0.20338811 0.09272199
00000000: 9d84 c53d 229b 583d 5ea1 ba3d 3a24 bc3d
00000010: 96da 793e 4fd8 623e 8865 b43d c35c 2b3e
00000020: 6462 213e 9b32 873d d274 333e 0441 933d
00000030: eddc 463e 2f0a d33d f944 503e 07e5 bd3d

backbone.conv3.conv.conv.weight f4 [32, 16, 3, 3]
-0.013858713 -0.091399685 0.04182093 0.0126248775 -0.095622376 -0.09246025 0.08917346 0.059760462
0.13527398 -0.08880015 -0.018030144 -0.01135474 0.05998149 0.08732958 0.08284773 0.028800877
0.081284985 0.14409289 -0.0033550025 -0.13647394 -0.022179434 -0.13083948 -0.09771502 -0.10628085
0.1077173 0.07325428 -0.03964955 0.023100222 -0.12452663 0.0051309485 -0.10289303 -0.053546134
0.075922385 -0.1563665 -0.19764443 -0.042284306 0.078569576 0.011310602 0.13113019 -0.007910757
-0.07265883 -0.061372228 0.053235427 0.0073340153 0.07470722 0.020171143 -0.004454736 -0.028406579
0.05252145 0.05523254 -0.1407765 0.1201525 0.058589242 0.08378172 -0.03645741 0.04373339
0.115531474 -0.05232422 0.05321915 0.049052164 0.0066484134 -0.09048934 0.11108671 -0.015365317
-0.011693144 0.057530522 -0.04218393 -0.0872607 0.111495905 -0.076838 -0.14926042 0.029172521
-0.06386829 -0.080845326 -0.14112152 0.02773984 -0.19803336 -0.061869875 0.11886489 -0.0072456733
-0.036139723 -0.026527116 -0.049814485 -0.03687962 -0.06050403 -0.02150252 -0.10400648 0.10640599
-0.013989851 0.06266479 -0.056033917 -0.040956218 -0.011097962 -0.13121805 -0.11057985 -0.015079348
-0.104998834 -0.08578981 0.027409414 0.14396852 -0.032121677 -0.035633847 0.09584632 0.0695452
-0.08545697 -0.013295255 0.088447355 -0.0562653 0.0042532994 0.004315713 -0.024557382 0.10555398
0.10367166 -0.035603885 -0.027663415 0.024926394 -0.04063955 0.10824167 -0.023785394 0.043257426
0.053088877 0.016489148 0.08291432 -0.0396045 -0.04711712 -0.033819187 0.02255353 -0.09382761
-0.07903231 0.02331796 -0.04448578 -0.04550134 0.076329 -0.036471475 0.033278305 -0.03804453
0.039034724 -0.12690608 0.09860709 0.011965363 -0.10124055 0.08455124 0.1085578 -0.21288429
-0.0046823854 -0.0053530913 0.0027103904 0.041308824 0.07887675 0.19725846 -0.018742902 0.02599564
-0.0022976308 -0.110212125 0.023695523 -0.13687661 0.038328636 0.019526077 0.07450369 0.091467954
0.010933854 -0.04404981 -0.015261921 -0.09030593 -0.036060702 0.07061287 0.05617032 0.038121305
-0.024217693 -0.021168912 -0.07154674 0.11286975 0.031340946 -0.058304757 0.042178545 -0.011271688
0.0596929 0.09484884 -0.07686633 -0.24642299 -0.12979627 -0.0753228 -0.03712989 -0.13501337
0.0031599614 -0.046921697 0.026253212 -0.09816513 -0.031735197 -0.054084342 -0.07604409 0.0065844096
-0.12113998 0.066421956 0.038609117 -0.08494365 0.042579036 0.035671912 0.116837084 0.06522694
-0.20059116 0.13242497 -0.022441488 -0.1066715 0.08900239 0.06423577 -0.059006367 0.10448707
0.035419606 -0.05979308 0.13613437 -0.0023212347 -0.113015614 0.09912451 -0.10938888 -0.1148244
0.016153255 -0.10602203 -0.046813544 -0.13913126 0.09930081 -0.034588836 -0.09501936 -0.084032215
-0.05359714 0.062291633 0.05799177 0.029397814 0.031002624 -0.0068911677 0.0613916 -0.027761221
-0.049116567 -0.05755657 -0.023386152 0.015771601 0.03474653 -0.0061421143 0.034099203 0.058516186
-0.03277259 0.0048277527 0.065465145 0.09699874 0.12710969 0.080894835 -0.022659047 -0.042997237
0.03606292 0.06419333 0.07812726 0.015298045 -0.083003476 0.04748819 0.060014676 -0.02849168
00000000: a80f 63bc c22f bbbd 6c4c 2b3d 93d8 4e3c
00000010: aad5 c3bd cd5b bdbd 93a0 b63d 63c7 743d
00000020: 4385 0a3e dadc b5bd f4b3 93bc 3b09 3abc
00000030: 27af 753d dad9 b23d 12ac a93d d1ef eb3c
00000040: be78 a63d 168d 133e 9adf 5bbb d3bf 0bbe
00000050: a5b1 b5bc c9fa 05be d01e c8bd c6a9 d9bd
00000060: e39a dc3d 5706 963d 9167 22bd ad3c bd3c
00000070: d107 ffbd 8421 a83b 95b9 d2bd 3153 5bbd
00000080: 327d 9b3d 8a1e 20be 4d63 4abe 4f32 2dbd
00000090: 16e9 a03d 1a50 393c fe46 063e 1f9c 01bc
000000a0: 27ce 94bd 7261 7bbd 640d 5a3d 2e52 f03b
000000b0: 1900 993d f43d a53c 09f9 91bb eab4 e8bc
000000c0: bb20 573d 843b 623d b727 10be 8412 f63d
000000d0: 46fb 6f3d c095 ab3d 5d54 15bd c821 333d
000000e0: c49b ec3d ec51 56bd 53fc 593d ecea 483d
000000f0: efda d93b 7a52 b9bd 6e81 e33d d0be 7bbc
00000100: 9a94 3fbc 20a5 6b3d 0ec9 2cbd bdb5 b2bd
00000110: f757 e43d 3e5d 9dbd b9d7 18be 36fb ee3c
00000120: 61cd 82bd 3c92 a5bd 2982 10be a93e e33c
00000130: 42c9 4abe 446b 7dbd 6f6f f33d 1d6d edbb
00000140: 3f07 14bd 654f d9bc 460a 4cbd 160f 17bd
00000150: 13d3 77bd 0e26 b0bc 5901 d5bd 62eb d93d
00000160: b035 65bc 6656 803d d283 65bd b5c1 27bd
00000170: 3ad4 35bc 065e 06be b077 e2bd 5f0f 77bc
00000180: a109 d7bd 91b2 afbd b589 e03c 7c6c 133e
00000190: 0592 03bd ccf4 11bd 134b c43d b76d 8e3d
000001a0: 1004 afbd 57d4 59bc e323 b53d 7176 66bd
000001b0: 435f 8b3b d36a 8d3b 902c c9bc af2c d83d
000001c0: cf51 d43d 61d5 11bd 639e e2bc 7032 cc3c
000001d0: a875 26bd cfad dd3d 96d9 c2bc b32e 313d
000001e0: b973 593d 4014 873c fcce a93d 5438 22bd
000001f0: e2fd 40bd fd85 0abd 2ec2 b83c b128 c0bd
00000200: b1db a1bd 4e05 bf3c b936 36bd 9d5f 3abd
00000210: 6152 9c3d 1d63 15bd d54e 083d 95d4 1bbd
00000220: e0e2 1f3d abf3 01be 84f2 c93d 5f0a 443c
00000230: 3557 cfbd 3329 ad3d 8d53 de3d 57fe 59be
00000240: b26e 99bb fc68 afbb cea0 313b 7133 293d
00000250: 228a a13d 1ffe 493e b78a 99bc cff4 d43c
00000260: d993 16bb e5b6 e1bd 1d1d c23c 6229 0cbe
00000270: 7dfe 1c3d 27f5 9f3c 6495 983d 8d53 bb3d
00000280: e823 333c 936d 34bd 230d 7abc 51f2 b8bd
00000290: 63b4 13bd 7b9d 903d d912 663d 1625 1c3d
000002a0: 2f64 c6bc 6d6a adbc 1987 92bd 4128 e73d
000002b0: 5d5f 003d f8d0 6ebd 69c3 2c3d e3ac 38bc
000002c0: 8b80 743d 1c40 c23d 186c 9dbd 4f56 7cbe
000002d0: 50e9 04be d742 9abd 8315 18bd f240 0abe
000002e0: 5b17 4f3b f730 40bd fa10 d73c cd0a c9bd
000002f0: c4fc 01bd 8b87 5dbd 01bd 9bbd 08c2 d73b
00000300: 3d18 f8bd 3c08 883d 9824 1e3d f0f6 adbd
00000310: 5b67 2e3d b61c 123d 4848 ef3d b495 853d
00000320: c567 4dbe 699a 073e 36d7 b7bc 9676 dabd
00000330: e346 b63d 0b8e 833d a9b0 71bd 51fd d53d
00000340: 2614 113d 97e9 74bd cf66 0b3e db1f 18bb
00000350: bb74 e7bd cb01 cb3d 4707 e0bd 0e29 ebbd
00000360: d553 843c 1422 d9bd 8fbf 3fbd 6d78 0ebe
00000370: 395e cb3d 06ad 0dbd 8399 c2bd 1519 acbd
00000380: ad88 5bbd 8325 7f3d c788 6d3d afd3 f03c
00000390: 37f9 fd3c 4ecf e1bb c275 7b3d 806b e3bc
000003a0: 742e 49bd 70c0 6bbd 5194 bfbc 7233 813c
000003b0: 6152 0e3d ca43 c9bb 9bab 0b3d abae 6f3d
000003c0: 8d3c 06bd 2032 9e3b 9712 863d 47a7 c63d
000003d0: 0b29 023e 31ac a53d 779f b9bc df1d 30bd
000003e0: b6b6 133d cb77 833d 2f01 a03d a7a4 7a3c
000003f0: bafd a9bd fa82 423d f3d1 753d 6267 e9bc

backbone.conv3.bn.bn.weight f4 [32]
0.9654946 0.9420434 0.9203534 0.97819924 0.93740445 1.0681472 0.9812289 0.8750756
0.9230839 0.8970839 0.9425204 1.0053802 0.9477056 0.992121 0.97261417 1.0014573
0.95482016 0.980752 1.05624 0.91584 0.9551646 1.0217036 1.001057 0.92236733
0.9932029 0.9772835 1.0370352 0.97514063 0.9436665 1.0279632 0.9222008 0.89444715
00000000: a72a 773f c229 713f 489c 6b3f 446b 7a3f
00000010: bdf9 6f3f 0cb9 883f d131 7b3f f404 603f
00000020: 3a4f 6c3f 4aa7 653f 0449 713f 4cb0 803f
00000030: d69c 723f a4fb 7d3f 3efd 783f c12f 803f
00000040: 186f 743f 9012 7b3f df32 873f 7e74 6a3f
00000050: ab85 743f 2fc7 823f a322 803f 4420 6c3f
00000060: 8c42 7e3f 402f 7a3f 92bd 843f d1a2 793f
00000070: 2194 713f 4c94 833f 5a15 6c3f 7dfa 643f

backbone.conv3.bn.bn.bias f4 [32]
-0.09385445 -0.16854031 -0.019691069 -0.020765178 0.0062718284 -0.08894586 -0.049419347 -0.15247563
0.010878403 -0.07428117 -0.036293738 -0.03514113 -0.1548392 0.036789116 -0.06573881 -0.03973353
-0.036960706 -0.05960313 0.02082679 -0.019412285 -0.03248983 -0.101508915 -0.09288917 0.03740936
0.0075542144 -0.08837994 -0.059781924 0.008866915 -0.08303057 -0.05570376 -0.13141002 0.02424581
00000000: c336 c0bd d595 2cbe 2a4f a1bc bc1b aabc
00000010: e983 cd3b 3f29 b6bd f16b 4abd 9222 1cbe
00000020: 543b 323c ba20 98bd bea8 14bd 25f0 0fbd
00000030: 2b8e 1ebe 2fb0 163d 12a2 86bd a0bf 22bd
00000040: 1c64 17bd 6922 74bd f29c aa3c 8306 9fbc
00000050: 0e14 05bd e8e3 cfbd ad3c bebd 8f3a 193d
00000060: 5889 f73b 8b00 b5bd e4dd 74bd 8946 113c
00000070: ee0b aabd a029 64bd 5990 06be 269f c63c

backbone.conv3.bn.bn.running_mean f4 [32]
-0.3808507 0.15192239 0.58507717 -0.5006024 0.15023062 -0.05986854 0.048164696 -0.025821185
0.04095957 0.16364671 0.12809436 -0.14808817 0.29666173 0.1568725 -0.55451715 -0.41453823
0.14820808 -0.004739342 0.7365064 -0.33068633 -0.34532472 0.5181658 -0.1333306 -0.49771914
-0.7376827 0.67073184 -0.11495721 -0.033981178 -0.49489766 -0.17973517 -0.5452849 -0.07667762
00000000: ddfe c2be 8b91 1b3e 9ec7 153f 7b27 00bf
00000010: 0ed6 193e b738 75bd 5848 453d f386 d3bc
00000020: 39c5 273d 0193 273e 2b2b 033e 6da4 17be
00000030: 0ce4 973e 2fa3 203e d6f4 0dbf 5b3e d4be
00000040: dcc3 173e 7b4c 9bbb af8b 3c3f b84f a9be
00000050: 67ce b0be 84a6 043f d187 08be 0bd5 febe
00000060: c6d8 3cbf 15b5 2b3f b06e ebbd d92f 0bbd
00000070: 3a63 fdbe 7f0c 38be cb97 0bbf 2809 9dbd

backbone.conv3.bn.bn.running_var f4 [32]
0.40621212 0.27221444 0.43987283 0.24017558 0.5540891 0.98956573 0.9861109 0.34031782
0.40040687 0.44152105 0.71430427 0.8245849 0.2907672 0.3816761 0.6021097 0.49243295
0.35714537 0.34164158 0.4596373 0.7927845 0.32848176 0.87472427 0.5639483 0.422175
0.35770103 0.54631084 0.41212273 0.57047796 0.45690936 0.56366575 0.57856566 0.4724778
00000000: 09fb cf3e b15f 8b3e 0337 e13e 96f0 753e
00000010: c9d8 0d3f 2e54 7d3f c471 7c3f 233e ae3e
00000020: 2102 cd3e 0c0f e23e a5dc 363f ff17 533f
00000030: 70df 943e 0d6b c33e dc23 1a3f 2c20 fc3e
00000040: c2db b63e a5eb ae3e 9555 eb3e edf3 4a3f
00000050: c32e a83e eeed 5f3f ea5e 103f 5227 d83e
00000060: 9724 b73e 07db 0b3f c001 d33e d80a 123f
00000070: 06f0 e93e 664c 103f e11c 143f 9ce8 f13e

backbone.csp2.conv1.conv.weight f4 [16, 32, 1, 1]
0.068242215 0.118980765 0.12075551 -0.22199391 -0.20438448 0.11889272 0.023262046 0.18823771
0.18264471 -0.2276438 0.020534663 0.07258102 -0.0633279 0.14085129 -0.069806285 -0.03905731
-0.14191496 0.14411174 -0.20910195 0.045604594 -0.04795321 -0.023924768 -0.023817053 0.17944743
-0.08747883 -0.24517462 0.13391463 -0.06921685 -0.054442666 0.047731146 -0.10400236 0.068218485
-0.28415602 0.18402815 0.15083875 0.12056826 -0.083503105 0.027581874 0.018884066 -0.023511397
0.20533027 0.00457999 0.104058534 0.011143484 -0.08885732 -0.043032065 0.09584017 0.096917205
0.088670224 0.08794815 -0.008471166 0.21587679 0.054103624 0.006982986 0.023322595 -0.07674486
-0.06871785 0.081249855 -0.1741061 0.10250288 -0.15337874 -0.22450837 -0.06720046 0.0749193
0.16698104 -0.15601407 -0.16364889 -0.031924367 -0.0459607 -0.18516813 0.06930157 -0.1731778
0.1329021 0.14018191 0.13241926 -0.16505373 0.12614691 0.034047507 0.16805474 0.17307088
-0.12925746 -0.018841377 -0.03465233 0.14888157 -0.08784694 0.10734999 0.098529264 0.22416903
0.13977478 0.13345394 -0.043753847 -0.13256949 -0.13218088 -0.022327738 0.1519684 0.037160378
0.10514718 -0.056674503 0.05282004 -0.14795867 0.1222721 -0.14840612 -0.11146268 0.10467148
0.19823644 -0.03838739 0.15995845 0.019091772 -0.058358148 -0.019901304 0.0593457 -0.018354362
0.19260868 -0.09686483 -0.066497825 -0.055524997 -0.23444584 0.16163191 -0.14225174 -0.02912848
-0.051668618 0.2378203 0.07924615 0.0983035 -0.10025954 0.16151857 0.05923471 0.16893786
0.07897113 0.19086659 0.27152023 0.10983243 -0.17425199 0.17697467 -0.110489696 0.068848774
-0.05440393 0.1667909 -0.004673612 -0.05581008 0.12914385 0.12162604 -0.11754404 -0.0035873384
0.1313336 0.015801808 -0.028035115 0.034906432 0.14515324 0.052617155 0.07713309 -0.042731322
-0.043616876 0.018275432 -0.2187677 0.120823726 -0.08095907 -0.09600423 -0.10106815 -0.03753302
-0.06738612 0.032580584 -0.065136395 0.0868393 0.0607563 0.012279227 -0.011784608 -0.07351449
0.21383424 0.1360072 0.11680862 -0.2074971 -0.0012625718 0.0037591585 -0.2376636 0.218311
-0.14491282 0.09414282 0.156662 0.10358121 0.16918074 -0.22530362 0.0909672 0.12739716
-0.044788703 -0.16355671 -0.15357229 0.10891076 0.02798798 0.18015623 -0.020474024 -0.102648
0.03801542 -0.15467207 -0.03208295 0.06858371 0.16814777 -0.20323491 -0.17797962 0.015065742
-0.09670885 -0.023661554 -0.07438386 0.0069391355 -0.071717665 0.16222884 0.1597007 0.098805495
-0.07581183 0.06583977 0.111135155 0.019104147 -0.18376705 0.018903596 0.11731304 -0.12815097
-0.051983584 -0.10067777 0.11614224 0.17143737 -0.105538785 0.035736725 0.0629026 0.09065166
-0.13031417 0.037020095 0.17174406 0.056649182 -0.039641988 -0.17290816 0.18773206 0.0013932482
0.13796604 -0.101947635 0.043616917 0.033797678 -0.08679675 0.07505437 0.065755434 -0.18706264
-0.014298134 -0.030946732 0.13583046 0.039247107 -0.13854785 -0.02602567 0.2024075 0.02279929
0.19881192 0.0093904035 0.13089995 -0.1590428 0.22352885 0.012245724 -0.047392283 0.09446749
00000000: 93c2 8b3d 30ac f33d aa4e f73d 5f52 63be
00000010: 2a4a 51be 077e f33d 0c90 be3c 63c1 403e
00000020: 3707 3b3e 751b 69be 4f38 a83c 5ca5 943d
00000030: 0fb2 81bd 523b 103e 99f6 8ebd 8ffa 1fbd
00000040: 2852 11be 0792 133e d21e 56be e2cb 3a3d
00000050: 966a 44bd e0fd c3bc fb1b c3bc 11c1 373e
00000060: 1a28 b3bd 0e0f 7bbe eb20 093e 90c1 8dbd
00000070: 46ff 5ebd bc81 433d 30ff d4bd 22b6 8b3d
00000080: e67c 91be e071 3c3e 7975 1a3e 7eec f63d
00000090: ad03 abbd 62f3 e13c c2b2 9a3c f99a c0bc
000000a0: 1942 523e be13 963b a41c d53d 2993 363c
000000b0: d4fa b5bd 6442 30bd da47 c43d 877c c63d
000000c0: bc98 b53d 291e b43d a5ca 0abc ce0e 5d3e
000000d0: c39b 5d3d 88d1 e43b 070f bf3c 692c 9dbd
000000e0: f2bb 8cbd 5366 a63d df48 32be 08ed d13d
000000f0: 510f 1dbe 86e5 65be 65a0 89bd 4a6f 993d
00000100: 14fd 2a3e 27c2 1fbe 9393 27be 20c3 02bd
00000110: 4941 3cbd b79c 3dbe fbed 8d3d 8555 31be
00000120: 7d17 083e d98b 0f3e ea98 073e d803 29be
00000130: a82c 013e 6675 0b3d 8b16 2c3e 7e39 313e
00000140: 115c 04be 3b59 9abc 9aef 0dbd 6974 183e
00000150: 19e9 b3bd 50da db3d b6c9 c93d 918c 653e
00000160: 1f21 0f3e 26a8 083e 3c37 33bd 4cc0 07be
00000170: 6d5a 07be a9e8 b6bc 9b9d 1b3e 7b35 183d
00000180: 6857 d73d 8623 68bd d459 583d 7a82 17be
00000190: cb69 fa3d c6f7 17be 8c46 e4bd 005e d63d
000001a0: 7efe 4a3e 193c 1dbd 26cc 233e 5966 9c3c
000001b0: f408 6fbd 0f08 a3bc 7a14 733d e35b 96bc
000001c0: 363b 453e 1161 c6bd 0330 88bd 2e6e 63bd
000001d0: 9212 70be d682 253e 71aa 11be da9e eebc
000001e0: 79a2 53bd 2a87 733e ce4b a23d 5853 c93d
000001f0: e054 cdbd 2065 253e 18a0 723d 0cfe 2c3e
00000200: 9ebb a13d 8872 433e b304 8b3e d3ef e03d
00000210: 1d6f 32be d938 353e 6c48 e2bd 9600 8d3d
00000220: a8d6 5ebd 3ccb 2a3e 1925 99bb 1c99 64bd
00000230: 493e 043e 1317 f93d eeba f0bd 8d19 6bbb
00000240: 517c 063e cb72 813c e6a9 e5bc 0cfa 0e3d
00000250: 0da3 143e 1685 573d f4f7 9d3d 0a07 2fbd
00000260: 9ca7 32bd 5cb6 953c a404 60be 6e72 f73d
00000270: decd a5bd de9d c4bd d1fc cebd 39bc 19bd
00000280: bc01 8abd 3873 053d 3b66 85bd ced8 b13d
00000290: 99db 783d d02e 493c 3a14 41bc c48e 96bd
000002a0: 5df7 5a3e 7945 0b3e 5c39 ef3d 1f7a 54be
000002b0: e17c a5ba 375c 763b 165e 73be eb8c 5f3e
000002c0: 0764 14be f3cd c03d 016c 203e 6322 d43d
000002d0: b73d 2d3e feb5 66be 034d ba3d 6774 023e
000002e0: 5c74 37bd 697b 27be 0e42 1dbe 9b0c df3d
000002f0: 0c47 e53c e07a 383e 24b9 a7bc 1d39 d2bd
00000300: 0fb6 1b3d 5b62 1ebe 6969 03bd 9e75 8c3d
00000310: ee2e 2c3e d01c 50be 4a40 36be 4dd6 763c
00000320: 4a0f c6bd e0d5 c1bc 9156 98bd b061 e33b
00000330: b6e0 92bd 511f 263e 9588 233e 895a ca3d
00000340: 3c43 9bbd 00d7 863d d49a e33d 4d80 9c3c
00000350: 6e2d 3cbe b7db 9a3c d241 f03d 023a 03be
00000360: bdec 54bd 2630 cebd fcdb ed3d 478d 2f3e
00000370: b824 d8bd ac60 123d 14d3 803d 94a7 b93d
00000380: 1471 05be 62a2 173d addd 2f3e f908 683d
00000390: a35f 22bd d60e 31be d53c 403e a79d b63a
000003a0: f846 0d3e ecc9 d0bd a7a7 323d 6f6f 0a3d
000003b0: 7fc2 b1bd 1bb6 993d c9aa 863d 598d 3fbe
000003c0: b842 6abc 0084 fdbc 2417 0b3e 93c1 203d
000003d0: 7ddf 0dbe c933 d5bc e943 4f3e 94c5 ba3c
000003e0: 5a95 4b3e 35da 193c a30a 063e 1edc 22be
000003f0: bfe4 643e 4aa2 483c 691e 42bd 2c78 c13d

backbone.csp2.bn1.bn.weight f4 [16]
0.92532796 0.8755415 0.96162826 0.90194523 0.9061675 0.97566426 0.9653341 0.94467825
1.0203215 0.9762456 0.97897327 0.8731914 0.8935506 0.9232073 0.93615085 0.8772878
00000000: 4be2 6c3f 7d23 603f 452d 763f e2e5 663f
00000010: 98fa 673f 22c5 793f 2320 773f 6fd6 713f
00000020: e599 823f 3beb 793f fe9d 7a3f 7989 5f3f
00000030: bbbf 643f 5057 6c3f 95a7 6f3f ef95 603f

backbone.csp2.bn1.bn.bias f4 [16]
0.032277036 -0.113428436 -0.055439856 -0.07846695 -0.03171929 -0.08802672 0.011597691 0.10507421
-0.09174858 0.040509906 0.038522102 0.029876392 -0.0602328 -0.019140081 -0.05909836 -0.03546618
00000000: ed34 043d 2b4d e8bd e714 63bd 48b3 a0bd
00000010: 16ec 01bd 5a47 b4bd 3e04 3e3c 2631 d73d
00000020: aee6 bbbd b7ed 253d 5ac9 1d3d 56bf f43c
00000030: abb6 76bd a9cb 9cbc 1f11 72bd fc44 11bd

backbone.csp2.bn1.bn.running_mean f4 [16]
-0.030996336 0.06551338 0.11014881 0.09647912 0.08661961 0.08736815 0.03225339 0.13988279
0.009901314 -0.021792615 -0.09742974 -0.11398255 -0.07396294 0.16274291 -0.03466493 -0.19018137
00000000: 07ec fdbc e12b 863d b395 e13d d896 c53d
00000010: 9f65 b13d 13ee b23d 211c 043d 6f3d 0f3e
00000020: 1f39 223c 6d86 b2bc 3e89 c7bd af6f e9bd
00000030: e279 97bd 14a6 263e d0fc 0dbd e8be 42be

backbone.csp2.bn1.bn.running_var f4 [16]
0.31189618 0.26647377 0.2585283 0.16766234 0.22174738 0.20770144 0.11485627 0.15959962
0.23633112 0.18212253 0.12824158 0.24574153 0.16002108 0.20255584 0.20691796 0.2537329
00000000: dbb0 9f3e 406f 883e d25d 843e adaf 2b3e
00000010: bf11 633e b0af 543e c439 eb3d 156e 233e
00000020: c900 723e 547e 3a3e c351 033e aba3 7b3e
00000030: 91dc 233e cc6a 4f3e 4de2 533e 47e9 813e
