final_model.pth (torch, 994018 bytes, 271 tensors)

backbone.conv1.conv.conv.weight f4 [8, 3, 3, 3]
0	0x3e714101	0.23559953
1	0x3e19e2b1	0.15027882
2	0x3d7a5b23	0.06112207
3	0x3e962a89	0.29329327
4	0xbd74e6fa	-0.05979059
5	0x3e0f568f	0.13997863
6	0x3b13fe2c	0.0022581918
7	0x3cb67f8b	0.022277614
8	0x3e45b971	0.19309022
9	0xbe2633eb	-0.16230743
10	0x3e0722c7	0.1319686
11	0x3cc8b448	0.024500027
12	0x3e035075	0.1282366
13	0x3caff1a1	0.021477522
14	0x3dbc00ef	0.091798656
15	0xbcbbb4cc	-0.02291336
16	0x3e1b8cc0	0.1519041
17	0x3d297731	0.041373435
18	0xbe1183a3	-0.14210372
19	0x3d2de90b	0.042458575
20	0xbdf1af04	-0.1180096
21	0xbdb15a7f	-0.08659839
22	0xbd882c4e	-0.066490754
23	0x3db67d57	0.089106254
24	0xbe55f5ea	-0.2089459
25	0xbd688aa2	-0.056772836
26	0xbd8ee398	-0.06977004
27	0xbdea2bcd	-0.114341356
28	0xbd577c64	-0.052608863
29	0xbe2ec390	-0.17066789
30	0x3e2ac1f5	0.16675551
31	0xbe4d634d	-0.20057411
32	0x3e1e2fd7	0.15447937
33	0x3da3dc54	0.08001009
34	0xbd8963f6	-0.06708519
35	0x3e2e6512	0.17030743
36	0xbc6b33d4	-0.0143556185
37	0x3e0f71af	0.1400821
38	0xbc932591	-0.017962249
39	0xbd8d99b8	-0.06914085
40	0x3d661979	0.056176636
41	0xbd9db02f	-0.0769962
42	0x3de6f0cc	0.11276397
43	0x3e4afc34	0.1982277
44	0x3dd171db	0.10226794
45	0xbd94d548	-0.07267243
46	0x3e5040b0	0.20337176
47	0xbb9596fd	-0.0045651183
48	0x3d444353	0.047915768
49	0xbdbac5f0	-0.09119785
50	0xbe843a44	-0.25825703
51	0xbda915df	-0.08256125
52	0xbdb882e6	-0.09009342
53	0x3dda1e55	0.106503166
54	0x3d3b795b	0.04577003
55	0x3dca69db	0.098834716
56	0x3dc345bd	0.09534786
57	0x3c0a4906	0.008440262
58	0x3e2b46be	0.16726205
59	0xbdbfc225	-0.09363202
60	0xbd4b95a4	-0.049703255
61	0xbe3b445a	-0.18287793
62	0x3a45e27e	0.00075487036
63	0xbdf2a3ff	-0.11847686
64	0xbd4c8eb8	-0.049940795
65	0xbdd8cd0b	-0.10585984
66	0x3e207694	0.15670234
67	0xbe02f273	-0.127878
68	0xbdd3d871	-0.10344017
69	0xbd04381d	-0.032280076
70	0x3e6a2e14	0.2286914
71	0x3df53baf	0.11974274
72	0x3e3d3473	0.18477039
73	0xbe3eb76f	-0.18624662
74	0xbe4feef7	-0.20306002
75	0xbe043d58	-0.12914026
76	0xbe0e4660	-0.13894033
77	0x3d98222f	0.07428395
78	0x3dd2a5cb	0.10285529
79	0x3e2908f2	0.16507319
80	0xbd689d12	-0.05679042
81	0xbe327ee0	-0.17431211
82	0x3df6535d	0.12027619
83	0xbdec213e	-0.11529778
84	0x3d4ee98a	0.05051569
85	0xbcc336e0	-0.023829877
86	0x3d6a2082	0.057159908
87	0xbe4ae090	-0.19812226
88	0xbd8de97e	-0.06929301
89	0x3c08bf6b	0.008346419
90	0x3da1a171	0.07892121
91	0xbd41547b	-0.047199707
92	0x3e0cd1cf	0.1375191
93	0x3e14a6a0	0.14516687
94	0xbe1ff735	-0.15621646
95	0xbdbc0fe6	-0.0918272
96	0x3e360330	0.17774653
97	0xbdc15cb7	-0.09441512
98	0xbd811cd2	-0.06304325
99	0xbdf8aab0	-0.12141931
100	0xbe1044bd	-0.14088722
101	0x3e11d959	0.14243068
102	0x3a34f8a4	0.00069035054
103	0xbe527671	-0.20552994
104	0x3d93154b	0.07181796
105	0xbe08f166	-0.13373336
106	0xbe883953	-0.26606235
107	0xbd7b159a	-0.061299898
108	0xbe0360ca	-0.12829891
109	0xbdeffa7b	-0.11717697
110	0x3e8faeb9	0.2806299
111	0x3d7a797a	0.061151005
112	0x3d6a916e	0.0572676
113	0xbd8d6171	-0.06903351
114	0xbd6d8cb1	-0.057995502
115	0xbc93063a	-0.017947305
116	0x3e1cbfa1	0.15307476
117	0xbdcf3b94	-0.101187855
118	0xbd4a5b90	-0.049403727
119	0xbe1d5905	-0.1536599
120	0xbdc9e271	-0.098576434
121	0xbe557d5b	-0.208486
122	0xbe444e8f	-0.19170593
123	0xbe3396c9	-0.17537989
124	0xbe5b7b26	-0.21433696
125	0xbe149fe8	-0.14514124
126	0xbc4f1ccf	-0.012641146
127	0xbd3ac24e	-0.04559546
128	0x3e3610b0	0.17779803
129	0xbd06e029	-0.03292862
130	0x3e4b429e	0.19849631
131	0x3d256f71	0.040389482
132	0xbe2b53a9	-0.16731133
133	0x3e13423f	0.1438074
134	0xbd98ebaa	-0.07466824
135	0xbe0d662a	-0.13808504
136	0xbe3a321b	-0.18183176
137	0xbe0b7db3	-0.13622169
138	0xbc3d3cc2	-0.01155013
139	0xbd8197e3	-0.06327798
140	0x3df031bc	0.11728236
141	0xbe65501e	-0.22393844
142	0x3dceed67	0.10103875
143	0xbdd96b43	-0.10616162
144	0xbc21f466	-0.009884929
145	0x3d8141f9	0.063114114
146	0x3e13677f	0.1439495
147	0x3e399492	0.18123081
148	0x3e473776	0.1945475
149	0xbda54e06	-0.080715224
150	0x3d5c451f	0.053776857
151	0xbdbbf214	-0.09177032
152	0x3bb571ff	0.005537271
153	0xbd3b94cf	-0.04579621
154	0x3e4b10ef	0.19830678
155	0xbdefbc8f	-0.117058866
156	0x3e61bbb7	0.22044264
157	0x3df59143	0.11990597
158	0x3dda2d5d	0.106531836
159	0xbc0b365b	-0.008496846
160	0x3e273e19	0.16332282
161	0x3d3a0cf0	0.045422494
162	0x3da5c409	0.08094031
163	0xbe5f60dc	-0.21814293
164	0x3d9ad74f	0.07560598
165	0x3cc2a5ea	0.023760755
166	0xbe0fe611	-0.14052607
167	0x3e2f5156	0.17120871
168	0x3ddedc79	0.108818956
169	0xbe0305c5	-0.1279517
170	0xbd040e69	-0.032240305
171	0x3d82986b	0.06376728
172	0x3de10377	0.10986989
173	0x3b12328a	0.0022307956
174	0xbdc9df9d	-0.09857104
175	0xbdd35024	-0.1031802
176	0xbdf7fc78	-0.121087015
177	0x3d526e61	0.051374797
178	0x3dd41934	0.103563696
179	0xbe1fbb31	-0.15598752
180	0x3bdc6330	0.0067256913
181	0x3e439b97	0.19102322
182	0x3daaa2f6	0.083318636
183	0xbdcf9bfc	-0.101371735
184	0x3e2d6003	0.16931157
185	0x3ddf3bc5	0.10900072
186	0x3d109f3c	0.035308108
187	0x3c4a8008	0.012359627
188	0xbd86e464	-0.06586531
189	0xbbd4c680	-0.0064933896
190	0xbd86a3f2	-0.06574239
191	0xbe020b8d	-0.12699719
192	0x3e402286	0.1876317
193	0x3e3cb218	0.18427312
194	0xbcc8ecc2	-0.024526957
195	0xbc9006a7	-0.017581297
196	0xbc5a94a1	-0.0133411
197	0xbd3100fe	-0.043213837
198	0x3d8726b5	0.0659918
199	0x3d43b489	0.047779594
200	0xbe35a564	-0.17738873
201	0xbb1c72d6	-0.0023872158
202	0x3e48bfb2	0.19604376
203	0x3de5cfd5	0.112212814
204	0xbcd1baf4	-0.025601842
205	0xbe0b5a6d	-0.13608713
206	0xbe1a1a94	-0.15049201
207	0xbe39f67b	-0.18160431
208	0xbdacac4a	-0.08431299
209	0x3da3550d	0.079752065
210	0x3def83cd	0.11695061
211	0x3dbf1132	0.093294516
212	0xbdf7f859	-0.121079154
213	0xbe0cf167	-0.13763963
214	0xbd2489c0	-0.04017043
215	0x3e380805	0.17971809

backbone.conv1.bn.bn.weight f4 [8]
0	0x3f7048a4	0.9386084
1	0x3f8638dc	1.0486102
2	0x3f6708f4	0.90248036
3	0x3f6c10bb	0.9221303
4	0x3f5cbf4e	0.8622941
5	0x3f745650	0.954442
6	0x3f761f9b	0.96141976
7	0x3f6bcd22	0.9210988

backbone.conv1.bn.bn.bias f4 [8]
0	0xbdaa9605	-0.08329395
1	0x3b6427b5	0.0034813706
2	0xbc8f521b	-0.017495206
3	0xbdd70c03	-0.10500338
4	0xbe0c7e02	-0.13719943
5	0x3b3d96d8	0.0028929021
6	0xbd3b4e71	-0.045729104
7	0xbd78802e	-0.060669117

backbone.conv1.bn.bn.running_mean f4 [8]
0	0xbda00223	-0.078129075
1	0x3d1be9ad	0.038064647
2	0xbe7e3fbe	-0.24829003
3	0xbf844437	-1.0333318
4	0xbf4a6444	-0.79059243
5	0x3f8be098	1.0927916
6	0x3edfc639	0.4370592
7	0xbe1bd04c	-0.15216178

backbone.conv1.bn.bn.running_var f4 [8]
0	0x40d62607	6.692142
1	0x3f0312a2	0.51200306
2	0x3e17a07d	0.14807315
3	0x3fae8007	1.3632821
4	0x407c41f0	3.9415245
5	0x3ffd298c	1.9778304
6	0x3f0034f5	0.50080806
7	0x3dda2f24	0.106535226

backbone.conv2.conv.conv.weight f4 [16, 8, 3, 3]
0	0x3c8cf61c	0.017207198
1	0xbd4627de	-0.048377864
2	0x3c1a9a4c	0.009436201
3	0xbcede189	-0.029038208
4	0xbdc08ad6	-0.09401481
5	0x3d37f598	0.04491195
6	0xbcf86089	-0.030319469
7	0xbd17b012	-0.037033148
8	0xbe12f659	-0.14351787
9	0x3e10b4f6	0.14131531
10	0x3e14aa85	0.14518173
11	0x3dd4773e	0.10374306
12	0xbdebe8bc	-0.11519
13	0xbe36dc7a	-0.17857543
14	0xbe5a903b	-0.21344082
15	0x3de7b119	0.113130756
16	0xbc89924f	-0.016793398
17	0x3d0d5a4d	0.034509946
18	0x3e2fe5a2	0.17177442
19	0x3de57027	0.11203032
20	0x3d6f376f	0.058402475
21	0xbdde78d5	-0.10862891
22	0xbe8f1a0a	-0.27949554
23	0xbe54caac	-0.20780438
24	0x3dda6c79	0.10665221
25	0xba860899	-0.0010225951
26	0xbb2e887b	-0.0026631642
27	0xbd6abd3b	-0.05730937
28	0xbd22399b	-0.039605718
29	0xbde4a5a3	-0.11164405
30	0xbd2577ea	-0.040397562
31	0x3d677929	0.05651203
32	0xbd7ccd15	-0.06171902
33	0x3d5126a8	0.051062256
34	0xbae0d1ef	-0.0017152409
35	0xbe284a16	-0.16434512
36	0xbd1acfc3	-0.037795793
37	0xbd99d7f7	-0.07511895
38	0xbc56a839	-0.013101631
39	0xbe051f87	-0.13000308
40	0x3d3cd816	0.046104513
41	0xbd6e2ca5	-0.058148045
42	0x3d7a7bc0	0.061153173
43	0x3d8b24f0	0.06794155
44	0x3dcc8794	0.09986797
45	0xbdb1374b	-0.086531244
46	0x3dee74aa	0.11643346
47	0xbd968fd9	-0.073516555
48	0x3d9d69f6	0.07686226
49	0x3e25e297	0.16199718
50	0x3c0c2507	0.00855375
51	0xbd11bfad	-0.035583187
52	0xbd0abfcb	-0.033874314
53	0xbdd4960d	-0.103801824
54	0xbd0f483f	-0.03498101
55	0xbde9ad2a	-0.114099815
56	0xbd3e876e	-0.046515875
57	0x3d8d88d2	0.06910862
58	0x3ddab15a	0.106783584
59	0xbe0ac52f	-0.13551782
60	0xbd28c2e3	-0.041201483
61	0x3dbe60ae	0.09295784
62	0x3cdd70da	0.02703135
63	0xbe045f9b	-0.12927096
64	0xbc959a51	-0.01826206
65	0xbe0f9bd9	-0.14024295
66	0xbda44ed6	-0.08022849
67	0xbd7e5536	-0.062092982
68	0xbdd49106	-0.103792235
69	0x3d37d790	0.04488331
70	0x3dcbf7b1	0.09959353
71	0x3e12b3ca	0.14326397
72	0x3dda0012	0.10644545
73	0xbd899317	-0.06717508
74	0xbd72e7d1	-0.05930311
75	0xbdbc0c2b	-0.09182008
76	0xbe31d696	-0.17367014
77	0xbe3cd926	-0.1844221
78	0x3c4e018c	0.012573611
79	0xbda73ab0	-0.081654906
80	0xbdb991df	-0.09061026
81	0x3cb288e2	0.021793786
82	0xbe0bbf54	-0.13647205
83	0xbd7980b6	-0.060913764
84	0xbcb794b4	-0.022409774
85	0xbdc45b24	-0.09587696
86	0xbdbb8c94	-0.091576725
87	0x3cdd6d60	0.027029693
88	0xbd0677ae	-0.03282898
89	0x3e222b3e	0.15836808
90	0xbd178b10	-0.036997855
91	0x3e1e2c1d	0.15446515
92	0x3b728836	0.0037007458
93	0x3d8274bc	0.063699216
94	0x3e6680c3	0.22510056
95	0x3cc89401	0.024484636
96	0xbdf0b7df	-0.11753821
97	0xbbb4c6f1	-0.0055168797
98	0x3d8253b5	0.06363622
99	0x3d28980f	0.04116064
100	0x3e6e7d27	0.2328993
101	0x3dd0e681	0.10200215
102	0xbd5f1d0e	-0.054471068
103	0x3d7f8815	0.062385637
104	0xbdf33789	-0.11875827
105	0xbb2f7091	-0.0026769976
106	0x3e4ed5e6	0.20198783
107	0x3e2fd3f5	0.17170699
108	0xbdd3ac0b	-0.10335549
109	0xbdb7096f	-0.08937346
110	0xbd7a6a6f	-0.06113666
111	0xbe3b72bd	-0.18305488
112	0xbdd4c03f	-0.103882305
113	0xbd0c6eb1	-0.03428525
114	0x3b7b5840	0.0038352162
115	0xbc870b89	-0.016484993
116	0xbdd3eea0	-0.103482485
117	0xbd569cc2	-0.05239559
118	0xbd6ffc80	-0.058590412
119	0xbdbb7c69	-0.09154589
120	0x3d29fa1f	0.0414983
121	0xbcfd68cf	-0.030933766
122	0xbd9f3990	-0.07774651
123	0x3d52ad3d	0.051434744
124	0xbdd5f2da	-0.10446711
125	0xbdb4dceb	-0.08831199
126	0xbda2e891	-0.07954515
127	0xbe46de91	-0.1942084
128	0xbe0a7ba8	-0.13523734
129	0xbbc73388	-0.006079141
130	0x3deda3f5	0.11603538
131	0xbc4d80de	-0.012542931
132	0x3b3a4945	0.002842502
133	0x3a63ec8a	0.000869461
134	0x3d74600f	0.05966192
135	0x3dad12b3	0.08450832
136	0x3dc4f7e2	0.096175924
137	0x3ccb67db	0.024829796
138	0xbd8fbf85	-0.07018951
139	0x3c7c94d3	0.015416342
140	0x3d885304	0.06656459
141	0xbd5c5de4	-0.05380048
142	0xbd895c6b	-0.067070805
143	0x3cee43c1	0.029085042
144	0x3d4e07fd	0.050300587
145	0xbd7eb419	-0.062183473
146	0xbdc8caf3	-0.098043345
147	0x3dcd9d8f	0.100398175
148	0x3dacb4e1	0.084329374
149	0x3d77c4fa	0.060490586
150	0x3d3bf93b	0.04589198
151	0xbd5a6813	-0.05332191
152	0xbda6f89f	-0.081528895
153	0xbd71db41	-0.059046987
154	0x3e49b89f	0.19699334
155	0x3d861639	0.065472074
156	0xbdebafb0	-0.11508119
157	0xbd27ddb3	-0.040982913
158	0xbe015075	-0.12628348
159	0xbc91b6d7	-0.01778738
160	0x3ddbff38	0.107420385
161	0x3ddb9049	0.107208796
162	0x3dfb2f89	0.12264926
163	0xbda82c0e	-0.08211528
164	0x3df5a102	0.119936004
165	0xbe0bfafa	-0.13669959
166	0x3d260862	0.04053534
167	0x3e0888dc	0.13333458
168	0xbdc69861	-0.09697033
169	0x3e260564	0.16212994
170	0xbdb27511	-0.08713735
171	0x3db8e7a7	0.09028559
172	0x3d67f4e0	0.056630015
173	0x3cca2407	0.024675382
174	0x3c38c5b0	0.011277601
175	0xbd1d530f	-0.03840929
176	0x3d93a229	0.07208664
177	0x3dce9d7f	0.10088634
178	0x3d887b66	0.066641614
179	0xbc6a4abc	-0.014300045
180	0xbd2f0dcd	-0.04273777
181	0x3d482226	0.04886069
182	0x3d90775b	0.07054015
183	0xbda3fcdb	-0.08007213
184	0xbda03d72	-0.0782422
185	0x3d311bf7	0.04323956
186	0xbd793f51	-0.0608514
187	0xbdb3b1ab	-0.08774122
188	0xbd8e7c10	-0.06957257
189	0xbe78f0ee	-0.24310657
190	0xbd2fb5e6	-0.04289808
191	0xbda0c939	-0.0785088
192	0xbdd1f890	-0.10252488
193	0x3db9ae36	0.09066431
194	0x3d31674e	0.04331141
195	0xbd4d54c2	-0.05012966
196	0x3e090a80	0.13382912
197	0x3d830da7	0.06399088
198	0x3d2189d7	0.039438095
199	0x3cdf06bd	0.027224893
200	0xbd89f3d7	-0.06735962
201	0x3d6af5de	0.057363383
202	0xbda2692f	-0.079302184
203	0xbd609f6c	-0.054839537
204	0xbd229304	-0.039690986
205	0xbdbf7c31	-0.093498595
206	0xbdf50bd4	-0.11965147
207	0x3da7c0c6	0.081910655
208	0x3e15252f	0.14564966
209	0x3c748628	0.0149245635
210	0xbdad119d	-0.08450625
211	0xbdd7a54d	-0.105295755
212	0xbdcc8d4e	-0.09987889
213	0xbd93b618	-0.07212466
214	0xbcd9b388	-0.026574865
215	0xbd584a8b	-0.052805465
216	0x3ce6ec76	0.028188925
217	0x3d01ef75	0.031722505
218	0xbe0b5250	-0.13605618
219	0x3e040d3d	0.12895675
220	0xbde0e2b0	-0.10980737
221	0xbd92da60	-0.07170558
222	0x3b87384a	0.004126583
223	0xbd90397e	-0.07042216
224	0xbded2a11	-0.11580289
225	0x3dd81167	0.10550194
226	0xbd6992fa	-0.057024933
227	0xbdaf9f01	-0.085752495
228	0x3e02edec	0.12786072
229	0xbdfa21f8	-0.1221351
230	0xbe89e978	-0.26935935
231	0x3dda2a4a	0.10652597
232	0x3d401c36	0.046901904
233	0xbe38ce2b	-0.18047397
234	0xbd59cc60	-0.053173423
235	0xbd97c5ac	-0.0741075
236	0xbda6b6f4	-0.08140364
237	0xbd25fe72	-0.04052586
238	0x3ca95671	0.020671101
239	0x3db54d13	0.08852591
240	0xbd2986cb	-0.041388314
241	0x3e0fd76a	0.14047018
242	0x3db9e66f	0.09077155
243	0xbdf59383	-0.11991026
244	0x3dab08ec	0.08351311
245	0x3e0b7c09	0.13621534
246	0xbd4e6945	-0.05039336
247	0x3b949bd9	0.00453518
248	0x3e047dc7	0.12938605
249	0xbe25ac62	-0.1617904
250	0xbd65df86	-0.05612137
251	0xbd0167ac	-0.03159301
252	0x3df1fcf1	0.11815823
253	0x3dd416d0	0.10355914
254	0x3dc8a512	0.0979711
255	0x3da805cc	0.08204231

backbone.conv2.bn.bn.weight f4 [16]
0	0x3f7d29bc	0.98891807
1	0x3f6e4bc3	0.93084353
2	0x3f654fe0	0.89575005
3	0x3f840d4b	1.0316557
4	0x3f71acb3	0.94404143
5	0x3f748f45	0.9553111
6	0x3f7a55f0	0.9778738
7	0x3f6bb032	0.9206573
8	0x3f63b52f	0.8894834
9	0x3f6e2eb3	0.9304001
10	0x3f6c1780	0.9222336
11	0x3f6f5278	0.9348521
12	0x3f7d2b30	0.98894024
13	0x3f68237d	0.9067915
14	0x3f6ecb22	0.93278706
15	0x3f617d06	0.88081396

backbone.conv2.bn.bn.bias f4 [16]
0	0x3bacacb9	0.0052696136
1	0x3caddce6	0.021223497
2	0x3da16016	0.07879655
3	0x3d2440a3	0.040100705
4	0xbc901cba	-0.017591823
5	0xbcfba0ec	-0.030716382
6	0xbd173ad1	-0.036921326
7	0x3c89fc29	0.016843872
8	0xbc367f72	-0.011138784
9	0x3ce6838f	0.028138904
10	0xbd043ecc	-0.03228645
11	0x3c960d7f	0.018316982
12	0xbc815512	-0.015787635
13	0xbc5ffef6	-0.013671627
14	0xbd03f9d6	-0.032220684
15	0x3c8f3455	0.017481009

backbone.conv2.bn.bn.running_mean f4 [16]
0	0xbe31fbec	-0.17381257
1	0xbe372cfd	-0.17888255
2	0xbd083194	-0.033250406
3	0xbdf656a3	-0.120282434
4	0x3df34cd0	0.11879885
5	0xbddf5b97	-0.10906141
6	0x3e12f2eb	0.14350478
7	0x3e77843f	0.24171542
8	0x3ba8b062	0.0051479796
9	0x3e973081	0.29529193
10	0xbeb1da27	-0.3473675
11	0xbe4a12d1	-0.1973374
12	0x3d21ff8f	0.03955036
13	0x3e929333	0.2862793
14	0x3e84221a	0.25807267
15	0x3d7e9cf9	0.06216142

backbone.conv2.bn.bn.running_var f4 [16]
0	0x3e359c35	0.1773537
1	0x3e7cb4c4	0.24678332
2	0x3e2f13ff	0.17097472
3	0x3e823d27	0.2543728
4	0x3e5ffc7c	0.21873659
5	0x3e55c42b	0.20875613
6	0x3dba4234	0.090946585
7	0x3e4723aa	0.19447199
8	0x3ef78d1a	0.4834984
9	0x3e776d89	0.24162878
10	0x3e92fc93	0.28708324
11	0x3ed5d73f	0.41765782
12	0x3e0f4c56	0.13993964
13	0x3ebf059f	0.37308976
14	0x3e36b5a3	0.17842726
15	0x3e900b64	0.2813369

backbone.csp1.conv1.conv.weight f4 [8, 16, 1, 1]
0	0x3e691315	0.22761185
1	0x3e22bac2	0.15891555
2	0xbd62d4f8	-0.055378884
3	0x3e6129ed	0.2198865
4	0xbcc94359	-0.024568247
5	0xbe6292bc	-0.22126287
6	0x3d2f5b0c	0.04281144
7	0x3dff404a	0.12463434
8	0x3e65aadd	0.2242846
9	0x3cfca850	0.030841976
10	0x3dd713ed	0.105018474
11	0x3e21eb5c	0.15812439
12	0x3e858a5f	0.2608213
13	0xbe6716cf	-0.22567295
14	0x3e9c88ce	0.30573124
15	0xbe2b72a3	-0.16742949
16	0x3e3162cc	0.17322844
17	0xbda5b667	-0.08091431
18	0xbe071267	-0.13190614
19	0x3d8888ad	0.06666694
20	0xbdb2327e	-0.08701037
21	0xbe721fde	-0.23644969
22	0xbe2db85a	-0.16964856
23	0x3d79c96e	0.060983114
24	0x3e489844	0.19589335
25	0xbdd65872	-0.10466088
26	0x3e6033d3	0.2189477
27	0x3b61a08f	0.0034427976
28	0x3d14f9a4	0.03637089
29	0x3ca69644	0.020335324
30	0xbe021f20	-0.12707186
31	0xbe750149	-0.23926271
32	0xbd1e2ece	-0.038618855
33	0xbe7b2302	-0.24525073
34	0xbe0131cc	-0.12616652
35	0x3d1827bf	0.03714728
36	0xbdf3fa82	-0.11913015
37	0xbe57cc4d	-0.21074028
38	0xbd8b5d8d	-0.06804953
39	0xbd6ab67f	-0.057302948
40	0xbe398912	-0.18118694
41	0x3d90ccc9	0.0707031
42	0xbd8e45bd	-0.06946895
43	0x3d457af8	0.048212975
44	0xbc976737	-0.018481834
45	0xbdea6ec0	-0.11446905
46	0xbdcad9f9	-0.09904856
47	0x3d0f2d3b	0.034955245
48	0xbe4d69eb	-0.20059936
49	0xbcdb9858	-0.026806042
50	0xbce47b89	-0.027890937
51	0x3e1c4e2f	0.152642
52	0x3d815cfd	0.06316564
53	0x3e179d3e	0.14806077
54	0xbd33aab5	-0.04386397
55	0xbe81b140	-0.25330544
56	0x3d901bb6	0.070365354
57	0xbe1f91bf	-0.15582941
58	0x3c83719e	0.016045388
59	0xbcb6222f	-0.022233097
60	0xbde2db3f	-0.11076974
61	0xbd911ccb	-0.0708557
62	0x3e862a16	0.26203984
63	0x3e054d29	0.13017716
64	0x3db6a350	0.08917868
65	0x3e920b85	0.28524414
66	0xbe1b02e6	-0.15137824
67	0x3e0078d8	0.12546098
68	0x3e260802	0.16213992
69	0x3e683cfc	0.22679514
70	0xbe6fbb56	-0.23411307
71	0x3dc17bf7	0.094474725
72	0xbdb1cac0	-0.086812496
73	0xbd01805b	-0.03161655
74	0xbdd8a5b2	-0.10578479
75	0xbe7b8f79	-0.24566449
76	0xbe2b1522	-0.1670728
77	0xbe24bbca	-0.16087261
78	0x3d5da627	0.054113533
79	0x3da57da2	0.08080603
80	0xbe6c3bca	-0.23069683
81	0xbd19b07f	-0.037521835
82	0xbd4f17ae	-0.050559692
83	0xbe9597b1	-0.29217294
84	0x3d31d8a6	0.043419503
85	0x3e58c8b9	0.2117032
86	0xbd4ad94d	-0.04952364
87	0xbe4fe392	-0.20301655
88	0x3d6844f7	0.056706395
89	0x3debd2da	0.11514826
90	0x3e3399fd	0.1753921
91	0xbe43e544	-0.19130427
92	0xbe6a46b0	-0.22878528
93	0x3dcb4160	0.09924579
94	0x3dbc8118	0.0920431
95	0xbd427e68	-0.04748383
96	0x3c87f325	0.016595433
97	0xbdc56a56	-0.096394226
98	0x3e630efb	0.22173683
99	0x3d334a5c	0.043772087
100	0x3e4d48c6	0.20047292
101	0x3e4f15a9	0.20223106
102	0x3db6dbf7	0.08928674
103	0x3d9dbaac	0.077016205
104	0x3d51fc3f	0.05126595
105	0x3e578071	0.2104509
106	0xbe414c50	-0.18876767
107	0x3e30adca	0.17253795
108	0xba80e5cd	-0.0009834111
109	0x3e329be2	0.17442277
110	0xbc770ce5	-0.015078758
111	0xbe0d60e3	-0.1380649
112	0xbc7a7d68	-0.015288688
113	0x3de3cfe4	0.11123636
114	0xbe52657f	-0.2054653
115	0xbe84cba7	-0.25936624
116	0xbd8aa514	-0.067697674
117	0xbdaaf67e	-0.08347796
118	0x3dc614e0	0.0967195
119	0x3df45c34	0.11931649
120	0xbd2e1225	-0.042497773
121	0x3e994348	0.29934144
122	0xbe550c0f	-0.20805381
123	0xbd9dcfc2	-0.07705642
124	0xbd62fc30	-0.055416286
125	0xbe3c08e9	-0.18362774
126	0xbe0f7c03	-0.1401215
127	0xbe229770	-0.15878081

backbone.csp1.bn1.bn.weight f4 [8]
0	0x3f6e3326	0.93046796
1	0x3f6ebe6c	0.9325931
2	0x3f7a7979	0.978416
3	0x3f7c1aec	0.9847858
4	0x3f6a84f7	0.9160914
5	0x3f7344ca	0.9502684
6	0x3f63c3f6	0.8897089
7	0x3f79c306	0.9756321

backbone.csp1.bn1.bn.bias f4 [8]
0	0xbcca6ec9	-0.02471103
1	0xbc413462	-0.011792274
2	0x3c833e30	0.016020864
3	0x3dbc7476	0.09201901
4	0xbd292c4a	-0.041302003
5	0x3d8ae1c0	0.0678134
6	0xbd94edf3	-0.07271948
7	0x3e20b145	0.15692623

backbone.csp1.bn1.bn.running_mean f4 [8]
0	0x3e5e1293	0.21686773
1	0xbd8c9024	-0.0686343
2	0xbe4d34f0	-0.20039725
3	0xbc7282a0	-0.014801651
4	0xba883328	-0.0010391222
5	0xbdf9e9d7	-0.122028045
6	0x3e4853ae	0.19563171
7	0xbe290c3f	-0.16508578

backbone.csp1.bn1.bn.running_var f4 [8]
0	0x3e6d519b	0.23175661
1	0x3dfb1076	0.12258999
2	0x3e15218e	0.14563581
3	0x3d9f2b8d	0.077719785
4	0x3d8b4ffd	0.06802366
5	0x3df70583	0.12061598
6	0x3df22fae	0.118255004
7	0x3e11cc48	0.14238083

backbone.csp1.conv2.conv.weight f4 [8, 16, 1, 1]
0	0xbebe94eb	-0.3722299
1	0x3ddf0d2b	0.108911835
2	0x3dace12d	0.08441386
3	0x3e397e22	0.18114522
4	0x3e141fbd	0.14465232
5	0xbd2a1cda	-0.04153142
6	0x3d2fa737	0.042884078
7	0xbd8328a5	-0.06404237
8	0x3bb1b1fb	0.0054228283
9	0xbe4c622f	-0.19959329
10	0x3dde1936	0.10844652
11	0xbdc13e03	-0.09435656
12	0x3e5db504	0.21651083
13	0x3e142280	0.14466286
14	0xbe24aa1e	-0.1608052
15	0x3e0f602b	0.14001529
16	0x3e1646b2	0.14675406
17	0x3d028a88	0.031870395
18	0xbc8a4645	-0.01687921
19	0x3e0ff61d	0.14058729
20	0x3e91d135	0.28479925
21	0x3d58d653	0.05293877
22	0x3e61666c	0.22011727
23	0xbd45e989	-0.04831842
24	0x3e0e8003	0.1391602
25	0x3d60e45a	0.054905273
26	0x3e2f6461	0.17128135
27	0x3e8668c8	0.26251817
28	0x3cc89869	0.024486737
29	0xbe28c7f4	-0.16482526
30	0xbda875bd	-0.08225582
31	0x3d2fa5d5	0.04288276
32	0x3da1de7d	0.079037644
33	0xbd627cf8	-0.05529496
34	0x3e3ed492	0.18635777
35	0x3e2b86dd	0.16750665
36	0xbe24b2f8	-0.16083896
37	0xbd8b3ceb	-0.067987286
38	0xbdaf3500	-0.08555031
39	0xbdcb9254	-0.09940019
40	0x3b327cbf	0.0027235
41	0xbcb3deee	-0.021956887
42	0xbe0f26b9	-0.13979615
43	0xbe5fa8d3	-0.21841745
44	0xbe665903	-0.22494893
45	0x3e6f6d3a	0.2338151
46	0x3dc4fd46	0.096186206
47	0x3e915469	0.28384712
48	0xbc824508	-0.015902057
49	0x3da2bdbd	0.07946346
50	0x3e1ce7ef	0.1532285
51	0x3b8c05fc	0.0042731743
52	0xbe660f3d	-0.2246675
53	0xbe19e2c1	-0.15027906
54	0xbe17aa18	-0.1481098
55	0xbd1967f7	-0.037452664
56	0x3dc1ec82	0.094689384
57	0x3dbd7833	0.09251442
58	0x3e4e40da	0.20141926
59	0x3d55d6b6	0.052206717
60	0xbd5aad4b	-0.05338792
61	0xbe281135	-0.16412814
62	0xbe38fcff	-0.1806526
63	0xbe325da6	-0.17418537
64	0x3db4bb0e	0.0882474
65	0x3e4ef9eb	0.20212524
66	0x3e741e29	0.2383963
67	0xbdf681f3	-0.120365046
68	0xbcd8f7f3	-0.026485419
69	0xbc9cc787	-0.01913811
70	0xbade7eee	-0.0016975084
71	0x3dee3b31	0.116323836
72	0xbbe86eda	-0.0070932927
73	0x3cd02032	0.025405977
74	0x3ced2b5d	0.028951341
75	0x3dd1f8e0	0.10252547
76	0xbe574720	-0.21023226
77	0xbdef8cba	-0.11696763
78	0x3d57d4a4	0.052693024
79	0xbd5e758c	-0.05431132
80	0xbe1990fd	-0.14996715
81	0x3e194836	0.14968953
82	0xbde1a5d0	-0.11017954
83	0x3d6256f3	0.055258702
84	0xbe1ed0ea	-0.15509382
85	0x3d25672d	0.0403816
86	0xbd864864	-0.06556776
87	0x3d961b66	0.073294446
88	0x3c12d701	0.008962394
89	0x3dd66d7b	0.104701005
90	0x3d25c00a	0.040466346
91	0xbcb1abc0	-0.021688342
92	0xbc5f3763	-0.013624045
93	0x3eb04582	0.3442803
94	0xbdbd7912	-0.09251608
95	0x3ddb3857	0.10704105
96	0x3e077186	0.132269
97	0xbe649ba9	-0.22325005
98	0x3e0cc572	0.13747194
99	0xbe4efe4e	-0.20214197
100	0xbd27fc77	-0.041012254
101	0xbdf14d00	-0.11782265
102	0xbe07a71d	-0.13247342
103	0x3e09924b	0.13434713
104	0xbea02407	-0.31277487
105	0x3e031e83	0.12804608
106	0xbe30df93	-0.17272787
107	0xbdc2248d	-0.09479628
108	0x3c18c752	0.009324865
109	0x3e01a9c1	0.12662412
110	0xbd4f1d50	-0.050565064
111	0x3e0727dc	0.13198799
112	0xbccb6c3c	-0.024831884
113	0x3e1162e8	0.14197886
114	0x3d89f801	0.06736756
115	0xbc059033	-0.008152056
116	0xbe436fbe	-0.19085595
117	0xbe0e25a7	-0.1388155
118	0x3e89c1ee	0.2690577
119	0xbe823b61	-0.25435928
120	0xbd1ab140	-0.037766695
121	0xbd2dd731	-0.04244155
122	0x3e7c76d8	0.2465471
123	0xbdb16e9f	-0.086636774
124	0xbe05ec8c	-0.13078517
125	0xbd1fe182	-0.03903342
126	0x3dc54e51	0.09634078
127	0x3d8f1036	0.06985514

backbone.csp1.bn2.bn.weight f4 [8]
0	0x3f7455eb	0.954436
1	0x3f7910a4	0.97291017
2	0x3f66d95e	0.90175426
3	0x3f6dadc4	0.9284327
4	0x3f73db24	0.9525626
5	0x3f6c2c54	0.9225514
6	0x3f80d40d	1.0064713
7	0x3f645dd2	0.8920566

backbone.csp1.bn2.bn.bias f4 [8]
0	0x3d643674	0.055715993
1	0xbceb178f	-0.028697757
2	0x3dca14e1	0.098672636
3	0x3e269ca7	0.16270696
4	0x3dbd3de9	0.09240324
5	0xbd6b0e80	-0.057386875
6	0xbcc3f3d5	-0.02391998
7	0xbdacdc62	-0.08440472

backbone.csp1.bn2.bn.running_mean f4 [8]
0	0x3d3e9b30	0.046534717
1	0x3e6d604e	0.23181269
2	0x3b9d2a4c	0.004796302
3	0xbd8d324a	-0.068943575
4	0x3d6b02b3	0.05737562
5	0x3d687cd8	0.056759685
6	0xbdc860ce	-0.09784089
7	0xbcb97c02	-0.02264214

backbone.csp1.bn2.bn.running_var f4 [8]
0	0x3dd114ed	0.102090694
1	0x3e55c3f7	0.20875536
2	0x3dde19cb	0.10844763
3	0x3dabbbf1	0.08385456
4	0x3df92f75	0.12167255
5	0x3dd16fb9	0.102263875
6	0x3e26a01a	0.16272011
7	0x3d989c2c	0.074516624

backbone.csp1.conv3.conv.weight f4 [16, 16, 1, 1]
0	0x3e4d5d0a	0.20055023
1	0xbd373eb1	-0.04473752
2	0x3da99cda	0.0828187
3	0xbea18879	-0.31549433
4	0x3d4696f8	0.04848382
5	0x3e04e425	0.12977655
6	0x3e46a34c	0.1939823
7	0xbe12c5e1	-0.14333297
8	0xbccbe95e	-0.024891552
9	0x3db00fa2	0.08596732
10	0xbddcee0f	-0.107875936
11	0xbe30e86c	-0.17276162
12	0xbe92a772	-0.28643376
13	0x3d7d878b	0.061896842
14	0x3e426e20	0.18987322
15	0xbde12fcc	-0.10995445
16	0x38a66d96	7.935909e-05
17	0xbcc3d929	-0.023907261
18	0xbe8301f0	-0.25587416
19	0x3d0dc309	0.03460983
20	0xbd6eee54	-0.058332756
21	0xbe10303a	-0.14080897
22	0x3e34f993	0.1767333
23	0xbe81cd5d	-0.25351992
24	0x3d282ed8	0.0410603
25	0xbe22aaf2	-0.15885523
26	0xbd329a64	-0.04360427
27	0xbd922e7b	-0.07137772
28	0x3dc97603	0.09836962
29	0xbe251823	-0.16122489
30	0x3e85544f	0.26040885
31	0xbddc9d3f	-0.1077218
32	0x3e0f76d2	0.1401017
33	0xbe1b2c63	-0.15153651
34	0x3e2469e8	0.16056025
35	0xbe23d892	-0.16000584
36	0xbda96045	-0.08270315
37	0xbdc2ba65	-0.09508208
38	0x3e0cbf4e	0.13744852
39	0x3e0b7911	0.13620402
40	0xbe8618f4	-0.26190913
41	0x3dacc243	0.0843549
42	0xbe754d85	-0.23955353
43	0x3e37813c	0.17920393
44	0x3cfcfa2f	0.030881016
45	0xbd632374	-0.055453733
46	0xbd91adf1	-0.07113255
47	0x3d461b5f	0.048365947
48	0xbddebb9e	-0.10875629
49	0x3e192143	0.14954095
50	0x3e3d4393	0.18482809
51	0x3deaa8f2	0.11458005
52	0x3e10d8f0	0.14145255
53	0xbe7eab29	-0.2486998
54	0x3e35b918	0.17746389
55	0xbdb2ca0a	-0.08729942
56	0xbdce2482	-0.10065557
57	0xbd84a20c	-0.064762205
58	0x3e1d9539	0.15388955
59	0x3e4c2035	0.19934161
60	0xbc156570	-0.009118423
61	0x3e1cf474	0.15327626
62	0xbe6de8a2	-0.23233274
63	0xbcbb0088	-0.022827402
64	0xbe9e00aa	-0.30859882
65	0xbc871154	-0.016487755
66	0xbde44829	-0.11146576
67	0xbe35c4c5	-0.17750843
68	0x3e099dc9	0.13439097
69	0x3e8ddf06	0.27709216
70	0xbe37bf5c	-0.17944092
71	0xbdccabbe	-0.09993695
72	0xbe1f0b1e	-0.15531585
73	0x3b8a60c2	0.00422296
74	0xbd83ed10	-0.064417005
75	0xbd87dce2	-0.06633927
76	0xbe339548	-0.17537415
77	0x3d8f84b7	0.07007735
78	0x3e84b6aa	0.25920612
79	0xbdd4726f	-0.10373389
80	0x3de160cc	0.11004791
81	0xbd33a86e	-0.0438618
82	0x3e512c52	0.20427063
83	0xbe0a3b44	-0.1349917
84	0xbd8008f3	-0.06251707
85	0x3e0eff21	0.13964511
86	0x3de1ae33	0.11019554
87	0x3e9a7508	0.30167413
88	0xbe454dd0	-0.19267964
89	0x3d2a57f0	0.04158777
90	0x3dc5e6a3	0.09663131
91	0xbe56ece0	-0.20988798
92	0x3ce49633	0.027903652
93	0xbd1dc26c	-0.038515493
94	0x3e5d7ae8	0.21628916
95	0xbe201fdd	-0.15637155
96	0xbd9964e9	-0.0748995
97	0x3e110474	0.14161855
98	0xbe4bee5f	-0.1991515
99	0xbe725666	-0.23665771
100	0xbd55d443	-0.05220438
101	0x3e41de64	0.18932492
102	0x3dab1919	0.083543964
103	0xbe3c278e	-0.18374464
104	0x3d0c7f2f	0.03430098
105	0xbe2f4b28	-0.17118514
106	0xbdca8b4b	-0.09889849
107	0x3e678a5e	0.22611377
108	0x3e154ee0	0.1458087
109	0xbd2b81d4	-0.04187186
110	0xbdee5152	-0.11636604
111	0x3d3f3781	0.046683792
112	0x3dedc9e7	0.116107754
113	0xbc047161	-0.008083672
114	0xbe4f3d74	-0.20238286
115	0x3e459de3	0.1929851
116	0xbd815849	-0.06315667
117	0x3dd7701d	0.10519431
118	0xbdcd0fa8	-0.10012752
119	0x3d9b08a6	0.07570009
120	0x3e1df763	0.15426402
121	0x3e27d267	0.16388856
122	0x3d5d3908	0.054009467
123	0x3e8b1c1c	0.27169883
124	0x3c813370	0.015771598
125	0x3d29a453	0.041416477
126	0x3e808d25	0.25107685
127	0x3e89eacc	0.26936948
128	0xbe09c0ef	-0.13452505
129	0x3e67b45c	0.22627395
130	0x3e40eb38	0.18839729
131	0xbd8316fe	-0.0640087
132	0x3e6b1bb1	0.22959782
133	0xbe037221	-0.12836505
134	0x3d7cbd76	0.06170412
135	0x3e5896ca	0.21151271
136	0xbea6365e	-0.32463354
137	0xbe4dd41f	-0.20100449
138	0xbe63f90b	-0.22262971
139	0xbd291a4b	-0.04128484
140	0xbe751058	-0.23932016
141	0xbd827b86	-0.063712165
142	0xbad1d43b	-0.0016008684
143	0x3dfebae2	0.12437989
144	0x3e3b8590	0.18312669
145	0x3e51c77e	0.20486256
146	0x3e147116	0.14496264
147	0xbe2faa47	-0.171548
148	0xbdedda66	-0.11613922
149	0xbc0d8465	-0.008637522
150	0x3e85ca08	0.261307
151	0xbd3526b6	-0.04422637
152	0xbd33e2cf	-0.043917473
153	0xbe482882	-0.19546703
154	0xbddeaf11	-0.10873235
155	0xbe4d668c	-0.2005865
156	0x3e286e5b	0.16448347
157	0xbc77e144	-0.015129391
158	0xbe515065	-0.20440824
159	0x3db304d1	0.08741153
160	0x3d8aba91	0.06773866
161	0xbd3b0745	-0.04566123
162	0x3d668be8	0.05628577
163	0x3e07ab0e	0.13248846
164	0xbe86cbdf	-0.26327416
165	0xbe51038d	-0.20411511
166	0xbd0d96b2	-0.034567542
167	0xbe1c485b	-0.15261976
168	0xbe4e34df	-0.20137356
169	0x3e77d257	0.24201332
170	0x3d30333f	0.043017622
171	0xbe187256	-0.14887366
172	0x3d7810dd	0.060562957
173	0xbe5b3188	-0.21405613
174	0x3e84bfb0	0.25927496
175	0xbd687b92	-0.05675847
176	0xbe058d6d	-0.13042231
177	0xbe3d5fab	-0.18493526
178	0x3de73f1b	0.11291333
179	0xbd835230	-0.064121604
180	0x3d0f6e92	0.035017557
181	0xbd96ccd2	-0.07363285
182	0xbe0bc654	-0.13649875
183	0x3c0db6ad	0.00864951
184	0x3e5979d3	0.21237879
185	0xbe11ae72	-0.14226702
186	0xbd15c663	-0.03656615
187	0xbe3abae1	-0.18235351
188	0xbe1a53f9	-0.15071096
189	0x3e78d40c	0.2429964
190	0x3d10ab8a	0.035319842
191	0x3e6e904a	0.2329723
192	0xbe09aa70	-0.13443923
193	0xbe251a37	-0.16123281
194	0xbde648aa	-0.11244328
195	0x3e694f51	0.22784163
196	0xbe1551fa	-0.14582053
197	0x3e312dfb	0.17302696
198	0x3e158fdc	0.14605659
199	0x3e0b9159	0.13629664
200	0x3d93ffef	0.0722655
201	0xbe11b07d	-0.14227481
202	0x3ddd5147	0.10806518
203	0xbe136d59	-0.14397182
204	0xbd649f2b	-0.055815857
205	0x3e5b6c15	0.21427949
206	0x3e258549	0.16164126
207	0xbd4ea12c	-0.050446674
208	0xbdaa3b24	-0.083120614
209	0xbda576ed	-0.08079324
210	0x3df29f45	0.118467845
211	0x3d860034	0.065430075
212	0x3c36870b	0.011140595
213	0x3cf931dc	0.030419283
214	0x3df1b3df	0.11801886
215	0xbe62f217	-0.22162662
216	0xbda79849	-0.08183343
217	0x3e140f37	0.14458929
218	0x3e66d762	0.225431
219	0xbdf33167	-0.11874657
220	0xbe977489	-0.29581097
221	0xbc5a0d9c	-0.013308909
222	0x3d961f05	0.07330135
223	0x3df22e0b	0.11825188
224	0x3e38c842	0.18045142
225	0xbe81fca4	-0.25388062
226	0x3e081374	0.13288671
227	0xbca10a18	-0.019658133
228	0x3e83560e	0.25651592
229	0x3e1877f5	0.1488951
230	0x3d12ac74	0.035808995
231	0x3e32b5dd	0.17452188
232	0xbe1669a5	-0.14688738
233	0xbe70d35f	-0.23518132
234	0xbe6706e6	-0.22561225
235	0x3e3ed87a	0.18637267
236	0x3db6cf9d	0.08926318
237	0xbe34c282	-0.17652324
238	0x3df8f989	0.1215697
239	0x3e662f47	0.22478972
240	0xbe54c7d9	-0.20779361
241	0x3e5994dc	0.21248192
242	0x3d6a0bdf	0.057140227
243	0x3da80e2d	0.08205829
244	0x3e545d17	0.20738636
245	0x3e6af431	0.22944714
246	0x3dbf668b	0.093457304
247	0x3e5109d8	0.20413911
248	0x3deb585e	0.11491464
249	0x3d9ac855	0.075577416
250	0xbe764282	-0.24048808
251	0xbbbea2f3	-0.005817765
252	0xbe54b24b	-0.20771138
253	0x3db0c986	0.086321875
254	0xbd9b1462	-0.07572247
255	0x3ccdf8ae	0.025142994

backbone.csp1.bn3.bn.weight f4 [16]
0	0x3f7f3c6d	0.9970158
1	0x3f728fb4	0.94750524
2	0x3f661626	0.89877546
3	0x3f7a776c	0.97838473
4	0x3f5b5479	0.8567577
5	0x3f656808	0.89611864
6	0x3f65f5b8	0.8982806
7	0x3f666eb1	0.9001265
8	0x3f699fd3	0.912595
9	0x3f5f8f2d	0.87327844
10	0x3f6d9690	0.92807865
11	0x3f5bdf5c	0.85887694
12	0x3f55dc20	0.8353901
13	0x3f77fc85	0.9686969
14	0x3f623970	0.8836889
15	0x3f61dae9	0.88224655

backbone.csp1.bn3.bn.bias f4 [16]
0	0x3d15a941	0.036538366
1	0xbd8a7ec8	-0.06762463
2	0x3ab72543	0.0013972897
3	0x3c88fa22	0.016720835
4	0xbda38e60	-0.0798614
5	0x3d64eb97	0.05588874
6	0x3c1fd39f	0.009755044
7	0xbdb039d6	-0.08604781
8	0x3c108249	0.008820125
9	0xbd1e6a45	-0.038675565
10	0x3c0a74a0	0.008450657
11	0xbdf346ac	-0.11878714
12	0xbd784b6b	-0.0606188
13	0xbd071e1d	-0.032987703
14	0xbcab93eb	-0.020944556
15	0xbd664e61	-0.05622709

backbone.csp1.bn3.bn.running_mean f4 [16]
0	0xbde5ec6b	-0.11226734
1	0xbe8b9bf2	-0.27267414
2	0xbd9d2184	-0.07672408
3	0x3ddf2e4b	0.108975016
4	0xbe8d336c	-0.27578294
5	0x3e4cd127	0.2000166
6	0xbe1c716f	-0.15277646
7	0x3f0c891a	0.548967
8	0xbe44a80b	-0.19204728
9	0xbdb70e57	-0.08938282
10	0xbe195f65	-0.14977796
11	0xbdf453c9	-0.11930043
12	0x3e04bb24	0.12962013
13	0xbcb7550f	-0.022379426
14	0x3e4a7a4b	0.19773214
15	0x3e6efd02	0.23338702

backbone.csp1.bn3.bn.running_var f4 [16]
0	0x3dc506eb	0.0962046
1	0x3d56c1b5	0.052430827
2	0x3db3aede	0.08773588
3	0x3db3779d	0.08763049
4	0x3e774ac1	0.2414961
5	0x3e65eba8	0.22453177
6	0x3da93191	0.08261407
7	0x3e32f031	0.17474438
8	0x3e19756a	0.14986196
9	0x3d83b55a	0.064310744
10	0x3e2b76b6	0.16744503
11	0x3d93a54d	0.07209263
12	0x3e40de42	0.18834785
13	0x3dd15faa	0.102233246
14	0x3e4b21c8	0.19837105
15	0x3dba95fa	0.09110637

backbone.conv3.conv.conv.weight f4 [32, 16, 3, 3]
0	0xbc81a2eb	-0.015824756
1	0xbdbb7ba1	-0.0915444
2	0x3d273c95	0.04082926
3	0x3c737fba	0.014861995
4	0xbdc5c380	-0.09656429
5	0xbdbfdb38	-0.093679845
6	0x3dbb8c1c	0.09157583
7	0x3d712ad4	0.058878735
8	0x3e067612	0.13130978
9	0xbdba1e34	-0.09087792
10	0xbc92e8f3	-0.017933344
11	0xbbe91834	-0.007113481
12	0x3d8774ea	0.066140965
13	0x3db94cc9	0.09047849
14	0x3db41695	0.0879337
15	0x3d16d6db	0.036825996
16	0x3dae149b	0.08500024
17	0x3e18c2a1	0.14917995
18	0xbb755289	-0.0037433228
19	0xbe09183f	-0.13388155
20	0xbcc2aaee	-0.023763146
21	0xbe0745d9	-0.13210239
22	0xbdcda9ae	-0.100421295
23	0xbddf3102	-0.108980194
24	0x3dda856b	0.10669979
25	0x3d948411	0.07251752
26	0xbd246a1f	-0.040140267
27	0x3ccb3ace	0.024808314
28	0xbe00653f	-0.12538622
29	0x3ba9b49a	0.005179
30	0xbdd36aad	-0.10323081
31	0xbd683849	-0.056694303
32	0x3da56748	0.0807634
33	0xbe1d7328	-0.1537596
34	0xbe4c841f	-0.19972275
35	0xbd1007a0	-0.03516352
36	0x3da0471f	0.07826065
37	0x3c1ae876	0.009454837
38	0x3e06ccbb	0.13164036
39	0xbc1762e7	-0.009239889
40	0xbd92bd1c	-0.07164976
41	0xbd7e42e6	-0.062075518
42	0x3d48ee01	0.049055103
43	0x3bf8d1d5	0.0075933733
44	0x3d9b87bc	0.07594249
45	0x3c75a6ec	0.014993411
46	0xbb9402d3	-0.0045169382
47	0xbcefc9b5	-0.029270986
48	0x3d54d60e	0.05196195
49	0x3d76c1c6	0.06024339
50	0xbe0e4120	-0.1389203
51	0x3dea8707	0.11451536
52	0x3d724d05	0.059155483
53	0x3da31048	0.0796209
54	0xbd15a53f	-0.036534544
55	0x3d3f63f7	0.046726193
56	0x3de97f33	0.114012145
57	0xbd5d86d7	-0.05408367
58	0x3d5af758	0.05345854
59	0x3d3c50e1	0.04597557
60	0x3c3abc08	0.011397369
61	0xbdb065a5	-0.08613137
62	0x3de98f1b	0.11404248
63	0xbc9d3f73	-0.019195294
64	0xbc638417	-0.013886473
65	0x3d57d924	0.052697316
66	0xbd4792a9	-0.04872385
67	0xbdbc82d0	-0.09204638
68	0x3dd10af6	0.10207169
69	0xbd9da137	-0.07696765
70	0xbe17b4c8	-0.14815056
71	0x3cf10b4a	0.029424328
72	0xbd849b26	-0.06474905
73	0xbda287de	-0.07936071
74	0xbe0dd008	-0.13848889
75	0x3cc678dd	0.024227554
76	0xbe4a1366	-0.19733962
77	0xbd7607a0	-0.060065866
78	0x3dedecb5	0.11617414
79	0xbbcae35b	-0.0061916537
80	0xbd0b8f17	-0.034072008
81	0xbcfa6598	-0.030566022
82	0xbd52fbc1	-0.051509622
83	0xbd1d942e	-0.038471393
84	0xbd713b59	-0.05889449
85	0xbcc616a5	-0.02418072
86	0xbdccbea8	-0.09997302
87	0x3dd5b045	0.10434011
88	0xbc90a64c	-0.017657422
89	0x3d7a73d5	0.061145622
90	0xbd5da5bc	-0.054113135
91	0xbd329f2e	-0.043608837
92	0xbc0535c9	-0.008130499
93	0xbe01324d	-0.12616844
94	0xbddb82ca	-0.107183054
95	0xbc161d95	-0.009162326
96	0xbdd5c2f0	-0.10437572
97	0xbdaae2bc	-0.083440274
98	0x3cf7f2c0	0.03026712
99	0x3e1386b7	0.14406858
100	0xbd1427ac	-0.036170647
101	0xbd259ff2	-0.04043574
102	0x3dcc4594	0.099742085
103	0x3d8cc8b5	0.06874219
104	0xbdb38c68	-0.08767015
105	0xbc4d926b	-0.012547116
106	0x3db0990e	0.08622943
107	0xbd6943a7	-0.056949284
108	0x399d16d6	0.00029962388
109	0x3ab995cc	0.0014159023
110	0xbce6a9e1	-0.028157176
111	0x3ddbc380	0.10730648
112	0x3dd51439	0.10404248
113	0xbd11e8bf	-0.035622355
114	0xbcf97e66	-0.03045578
115	0x3cb5ad2a	0.022177298
116	0xbd2f6cd4	-0.042828396
117	0x3dd5cd9a	0.10439606
118	0xbcf2ab2b	-0.029622635
119	0x3d2b7677	0.041861024
120	0x3d552d5d	0.052045215
121	0x3c603309	0.013684043
122	0x3dab436c	0.08362469
123	0xbd2c1494	-0.042011812
124	0xbd538bc1	-0.05164695
125	0xbd06c667	-0.032904055
126	0x3c85c042	0.016327027
127	0xbdc4e108	-0.09613234
128	0xbdab69ff	-0.083698265
129	0x3c8329ff	0.016011236
130	0xbd4470db	-0.04795919
131	0xbd51b021	-0.05119336
132	0x3d91859b	0.07105561
133	0xbd1d950f	-0.03847223
134	0x3d055cd7	0.032559242
135	0xbd192382	-0.03738738
136	0x3d1ec9b5	0.03876658
137	0xbe04ef4b	-0.12981908
138	0x3dcbc2fb	0.09949299
139	0x3c0e41f4	0.008682717
140	0xbdd35995	-0.10319821
141	0x3da4decd	0.080503084
142	0x3dd27fa1	0.102782495
143	0xbe5c7dc8	-0.21532357
144	0xbbb6c4f1	-0.0055776765
145	0xbbba3d35	-0.005683566
146	0x3b22ef5c	0.0024861908
147	0x3d2dbb86	0.042415164
148	0x3da317a3	0.07963493
149	0x3e4b43f1	0.19850136
150	0xbca4eb9f	-0.020131884
151	0x3ced315e	0.028954204
152	0xbb8e9791	-0.004351564
153	0xbddca75c	-0.10774109
154	0x3cbf5c0a	0.023359317
155	0xbe05a22c	-0.13050145
156	0x3d15a90c	0.03653817
157	0x3cb2f137	0.021843536
158	0x3d9ae6b5	0.07563535
159	0x3db7e96f	0.08980071
160	0x3c903515	0.017603436
161	0xbd1b7bb7	-0.03795978
162	0xbc90d442	-0.017679337
163	0xbdb3253f	-0.087473385
164	0xbd0f8ff7	-0.035049405
165	0x3d9280cc	0.07153472
166	0x3d81f590	0.063456655
167	0x3d2421ef	0.040071424
168	0xbcbd9af3	-0.023145175
169	0xbc8c9803	-0.017162329
170	0xbd9279e9	-0.07152159
171	0x3de82696	0.11335485
172	0x3d0c3c69	0.0342373
173	0xbd65d297	-0.056109037
174	0x3d398363	0.045291316
175	0xbb4b8ebe	-0.0031060423
176	0x3d83b749	0.06431443
177	0x3dbd136e	0.092322215
178	0xbd9a51bf	-0.07535123
179	0xbe788456	-0.24269232
180	0xbe02d66a	-0.12777105
181	0xbd96a681	-0.07355977
182	0xbd100af8	-0.03516671
183	0xbe0bd2ef	-0.13654684
184	0x3b868400	0.004105091
185	0xbd5d01d8	-0.053956836
186	0x3cd3a0f8	0.025833592
187	0xbdc94072	-0.09826745
188	0xbd20490b	-0.03913216
189	0xbd5d262d	-0.053991485
190	0xbd99d3fc	-0.07511136
191	0x3bd3c9e0	0.0064632744
192	0xbdf4a3cb	-0.119453035
193	0x3d8aacde	0.06771253
194	0x3d14f674	0.03636785
195	0xbda82831	-0.08210791
196	0x3d3511fb	0.0442066
197	0x3d01c07b	0.031677704
198	0x3deea559	0.11652631
199	0x3d86b1fe	0.06576918
200	0xbe4b1f77	-0.19836222
201	0x3e05695c	0.13028473
202	0xbcba104b	-0.022712847
203	0xbdd2f169	-0.102999516
204	0x3daeb11e	0.08529876
205	0x3d75189e	0.05983793
206	0xbd5fe9a0	-0.05466616
207	0x3dddb6e9	0.10825903
208	0x3d070706	0.032965682
209	0xbd635e97	-0.05551013
210	0x3e0beec8	0.13665307
211	0xbbd61f83	-0.006534518
212	0xbde805de	-0.11329244
213	0x3dca03fd	0.09864042
214	0xbdf0d6a6	-0.11759691
215	0xbdec097d	-0.11525247
216	0x3c9cfd28	0.019163683
217	0xbdd0aa98	-0.10188788
218	0xbd4616e6	-0.04836168
219	0xbe0ab0b3	-0.13543968
220	0x3dd799de	0.10527395
221	0xbd195c81	-0.037441734
222	0xbdc3ac76	-0.09554379
223	0xbdb2f490	-0.08738053
224	0xbd73a027	-0.059478905
225	0x3d78bf42	0.060729273
226	0x3d680cc2	0.05665279
227	0x3cf9a407	0.030473722
228	0x3d023de8	0.03179732
229	0xbb9b7c9d	-0.0047450797
230	0x3d83d9f0	0.06438053
231	0xbcd9882d	-0.026554191
232	0xbd33a980	-0.04386282
233	0xbd5cf1cd	-0.053941537
234	0xbcd162d9	-0.02555983
235	0x3c70149f	0.014653354
236	0x3d146af5	0.036234815
237	0xbbcd77ea	-0.0062703984
238	0x3d1bb6b7	0.038016047
239	0x3d777755	0.06041654
240	0xbd0822a7	-0.033236172
241	0x3c104348	0.008805104
242	0x3d8c7a17	0.06859224
243	0x3dc9821c	0.098392695
244	0x3df17454	0.11789766
245	0x3d9ec558	0.07752484
246	0xbcde3acc	-0.027127646
247	0xbd41ea9f	-0.047342893
248	0x3d13a048	0.036041528
249	0x3d7d6416	0.061863028
250	0x3daab1f0	0.0833472
251	0x3c85ba51	0.016324194
252	0xbda8a1b3	-0.08233967
253	0x3d445be8	0.04793921
254	0x3d7d4c46	0.06184032
255	0xbcd8bc38	-0.026456937

backbone.conv3.bn.bn.weight f4 [32]
0	0x3f7621c9	0.961453
1	0x3f70a657	0.94003814
2	0x3f6b66b5	0.91953593
3	0x3f787a4f	0.9706163
4	0x3f7023b5	0.93804485
5	0x3f887a7e	1.0662382
6	0x3f7a01ea	0.9765917
7	0x3f5e3b59	0.8680931
8	0x3f6ad38e	0.91729057
9	0x3f643cbb	0.8915517
10	0x3f70b70a	0.94029295
11	0x3f8046ef	1.0021647
12	0x3f71ec60	0.94501305
13	0x3f7ddd1c	0.9916551
14	0x3f784e9c	0.9699495
15	0x3f7f5fb5	0.9975541
16	0x3f75298d	0.95766526
17	0x3f7b437e	0.9814986
18	0x3f86bfa7	1.0527238
19	0x3f69323e	0.9109229
20	0x3f7349fe	0.9503478
21	0x3f82ceaa	1.0219319
22	0x3f7f4a66	0.997229
23	0x3f6bf3f4	0.9216912
24	0x3f7d54e4	0.9895766
25	0x3f7a5412	0.9778453
26	0x3f8463c8	1.0342951
27	0x3f79ec72	0.9762641
28	0x3f733e8d	0.9501732
29	0x3f82bdd8	1.0214186
30	0x3f6b5228	0.91922235
31	0x3f62ad6e	0.8854588

backbone.conv3.bn.bn.bias f4 [32]
0	0xbdc973b8	-0.09836525
1	0xbe30a6dc	-0.17251152
2	0xbca6eea4	-0.020377465
3	0xbcc4f101	-0.0240407
4	0x3bd36b68	0.006452013
5	0xbdbbe6ef	-0.091749065
6	0xbd47ce72	-0.048780866
7	0xbe22ba50	-0.15891385
8	0x3bf91002	0.0076007852
9	0xbd987f05	-0.07446102
10	0xbd1e4939	-0.03864405
11	0xbd14cadb	-0.03632627
12	0xbe20c442	-0.15699866
13	0x3d23d5b5	0.03999873
14	0xbd8816ee	-0.066449985
15	0xbd20dd76	-0.0392737
16	0xbd071055	-0.03297456
17	0xbd7f3a1e	-0.062311284
18	0x3c892fd5	0.01674644
19	0xbcb3e56b	-0.021959981
20	0xbd0ab3d1	-0.033862893
21	0xbdca4232	-0.09875907
22	0xbdc200a3	-0.09472778
23	0x3d1e9e10	0.03872496
24	0x3c1e1123	0.00964764
25	0xbdae7fc6	-0.085204646
26	0xbd6dc30e	-0.058047347
27	0x3c6e6361	0.014550061
28	0xbda0f401	-0.0785904
29	0xbd69f445	-0.05711772
30	0xbe04b1b2	-0.1295841
31	0x3c9e5527	0.019327713

backbone.conv3.bn.bn.running_mean f4 [32]
0	0xbed6d387	-0.41958258
1	0x3e49ade9	0.19695248
2	0x3f14f5eb	0.5818774
3	0xbef41634	-0.4767319
4	0x3e520faa	0.20513788
5	0x3a1218f8	0.00055731786
6	0x3b551d44	0.0032518664
7	0xbd5a5fba	-0.05331395
8	0x3ce3e4bf	0.027819036
9	0x3e1566e1	0.14590026
10	0x3de2c6eb	0.11073097
11	0xbe440dc8	-0.19145882
12	0x3ea89544	0.3292638
13	0x3e22ff04	0.15917593
14	0xbf140f82	-0.57836163
15	0xbebd54dd	-0.36978808
16	0x3e235343	0.1594973
17	0x3c177610	0.009244457
18	0x3f36a2eb	0.71342343
19	0xbebe64cf	-0.37186286
20	0xbe9a9e84	-0.30199063
21	0x3f02f374	0.5115273
22	0xbe02bee2	-0.12768129
23	0xbef9ade2	-0.48765475
24	0xbf412b73	-0.75456923
25	0x3f2d9819	0.6781021
26	0xbdeb3872	-0.114853755
27	0xbcb96fa3	-0.02263624
28	0xbeea5e0d	-0.4577488
29	0xbe63ac33	-0.22233658
30	0xbf1eb44a	-0.6199385
31	0xbe077c09	-0.1323091

backbone.conv3.bn.bn.running_var f4 [32]
0	0x3ee48957	0.44636032
1	0x3e872839	0.26397875
2	0x3edd70e2	0.43250185
3	0x3e83ae37	0.25718853
4	0x3f06d121	0.52662855
5	0x3f5f3f77	0.87206215
6	0x3f735719	0.95054775
7	0x3ea5d397	0.32387993
8	0x3ec7dfff	0.39038083
9	0x3ed82e82	0.42222983
10	0x3f2b2f08	0.6686864
11	0x3f42a544	0.76033425
12	0x3e9868a3	0.2976733
13	0x3ec64321	0.3872309
14	0x3f1e3f34	0.6181519
15	0x3efaf3ee	0.4901423
16	0x3ec1d3ee	0.37857002
17	0x3eaffd9a	0.3437317
18	0x3ee04eff	0.4381027
19	0x3f31e7ef	0.6949453
20	0x3ea73456	0.32657117
21	0x3f4dbace	0.80363166
22	0x3f0c7f0b	0.5488135
23	0x3ee41b6f	0.4455218
24	0x3eaade73	0.3337284
25	0x3f0b4c80	0.54413605
26	0x3ee1eba2	0.44125086
27	0x3f0926f8	0.53575087
28	0x3ed08304	0.40724957
29	0x3f1125c2	0.5669824
30	0x3f15136b	0.58232754
31	0x3ef32969	0.4749253

backbone.csp2.conv1.conv.weight f4 [16, 32, 1, 1]
0	0x3d8c046a	0.068367794
1	0x3df4e408	0.11957556
2	0x3df37018	0.118866146
3	0xbe627b24	-0.22117287
4	0xbe51849e	-0.20460746
5	0x3dedc010	0.11608899
6	0x3c7223f5	0.014779081
7	0x3e3ca8f0	0.1842382
8	0x3e39215c	0.18079132
9	0xbe6721ec	-0.22571534
10	0x3ca87c5c	0.020567112
11	0x3d918798	0.071059406
12	0xbd8e8726	-0.06959371
13	0x3e0ffe41	0.14061834
14	0xbd898d10	-0.06716359
15	0xbd1cde8a	-0.038298167
16	0xbe1364e4	-0.14393955
17	0x3e13c14b	0.14429204
18	0xbe5c818c	-0.21533793
19	0x3d46594c	0.048425004
20	0xbd515e33	-0.051115226
21	0xbcbb9193	-0.022896564
22	0xbca8ff04	-0.020629413
23	0x3e37e116	0.17956957
24	0xbdba0ec0	-0.090848446
25	0xbe734bb6	-0.2375935
26	0x3e0a52ad	0.13508101
27	0xbd8dbd58	-0.0692088
28	0xbd54c5fb	-0.05194662
29	0x3d40397b	0.046929818
30	0xbdcf226c	-0.10113987
31	0x3d871602	0.065959945
32	0xbe8ca1e7	-0.27467272
33	0x3e3c7ed7	0.1840776
34	0x3e20cb81	0.1570263
35	0x3e038799	0.12844695
36	0xbdb9b796	-0.09068219
37	0x3d0147f7	0.03156277
38	0x3cbd9761	0.023143472
39	0xbcc0b4aa	-0.023523647
40	0x3e4bcfc8	0.19903481
41	0x3b280ac7	0.002564119
42	0x3dcba593	0.0994369
43	0x3c907545	0.017634043
44	0xbda98099	-0.08276481
45	0xbd16295d	-0.03666054
46	0x3dbb6210	0.09149563
47	0x3dc0d9e9	0.09416563
48	0x3dbfa142	0.09356929
49	0x3db20eca	0.08694227
50	0xbc359023	-0.011081728
51	0x3e573377	0.21015726
52	0x3d6e89cd	0.058236886
53	0x3bd05b50	0.0063585415
54	0x3cabb7d1	0.020961674
55	0xbdac6e91	-0.08419526
56	0xbd8b3ea4	-0.06799057
57	0x3da523af	0.08063447
58	0xbe36c10d	-0.1784708
59	0x3ddac4a0	0.106820345
60	0xbe22222f	-0.15833353
61	0xbe5fb1f8	-0.21845233
62	0xbd95c672	-0.07313241
63	0x3d95c16f	0.07312285
64	0x3e271034	0.16314775
65	0xbe1e8c30	-0.15483165
66	0xbe26c5fa	-0.1628646
67	0xbcc9c19d	-0.024628455
68	0xbd37f8be	-0.044914953
69	0xbe3e8e60	-0.18608999
70	0x3d920a27	0.07130843
71	0xbe30a27c	-0.17249483
72	0x3e06b607	0.13155375
73	0x3e12dbb1	0.14341618
74	0x3e0cb534	0.13740999
75	0xbe2ad853	-0.16684084
76	0x3e092b30	0.13395381
77	0x3d118514	0.035527304
78	0x3e28f99f	0.16501473
79	0x3e3575d1	0.17720725
80	0xbe055973	-0.13022403
81	0xbcb57131	-0.0221487
82	0xbd202fe9	-0.03910819
83	0x3e16c9b2	0.14725378
84	0xbdb45be0	-0.08806586
85	0x3ddf5d8a	0.10906513
86	0x3db5d4aa	0.08878453
87	0x3e61e153	0.2205861
88	0x3e14ccd5	0.14531262
89	0x3e06fcf6	0.13182434
90	0xbcff1b5b	-0.031140974
91	0xbe04369d	-0.12911458
92	0xbe083bea	-0.13304105
93	0xbc32347e	-0.010876773
94	0x3e1868ed	0.14883776
95	0x3d160999	0.036630247
96	0x3de0bdda	0.10973711
97	0xbd5ee10b	-0.054413836
98	0x3d504daa	0.050855316
99	0xbe1657db	-0.14681952
100	0x3dfa3fa5	0.122191705
101	0xbe150456	-0.14552435
102	0xbde9cd67	-0.114161305
103	0x3dd06fe4	0.101775914
104	0x3e476d73	0.19475345
105	0xbd20db77	-0.039271798
106	0x3e1e0d16	0.1543468
107	0x3c9e1a85	0.019299755
108	0xbd4e35a5	-0.05034413
109	0xbcc299e0	-0.023755014
110	0x3d7dce60	0.061964393
111	0xbc4d485a	-0.012529457
112	0x3e4b80bf	0.19873331
113	0xbdd4b0c4	-0.10385278
114	0xbd83524a	-0.0641218
115	0xbd60e468	-0.054905325
116	0xbe6d0233	-0.2314537
117	0x3e26be23	0.16283469
118	0xbe0e854c	-0.13918036
119	0xbcf1abd8	-0.029500887
120	0xbd477b52	-0.04870159
121	0x3e744ef6	0.23858246
122	0x3da279a7	0.079333596
123	0x3dd0192d	0.10161052
124	0xbdc984da	-0.098397925
125	0x3e252d23	0.161305
126	0x3d670da5	0.056409497
127	0x3e2bc515	0.167744
128	0x3da50ddb	0.08059283
129	0x3e48301a	0.195496
130	0x3e8af736	0.27141732
131	0x3dceb26a	0.100926235
132	0xbe30ffc6	-0.1728507
133	0x3e337a2e	0.17527077
134	0xbdef3e24	-0.11681774
135	0x3d8cac4c	0.068688005
136	0xbd505fa2	-0.050872453
137	0x3e2f0b6a	0.17094198
138	0x3a7d36c5	0.00096593454
139	0xbd671d1b	-0.05642424
140	0x3df8cca9	0.12148411
141	0x3df29653	0.11845078
142	0xbdf1f706	-0.11814694
143	0xbbbd7a37	-0.0057823914
144	0x3e04e83f	0.1297922
145	0x3c468871	0.012117491
146	0xbcd19d8f	-0.025587825
147	0x3d1c073a	0.03809283
148	0x3e16b9dc	0.14719337
149	0x3d59a205	0.05313303
150	0x3da3393e	0.079699025
151	0xbd2a13eb	-0.0415229
152	0xbd380839	-0.044929717
153	0x3cb39cfc	0.021925442
154	0xbe5d4ab7	-0.21610533
155	0x3dfb7169	0.12277491
156	0xbd9e8f9c	-0.07742235
157	0xbdcb9bf2	-0.099418536
158	0xbdc461c7	-0.09588962
159	0xbd0a635a	-0.033786155
160	0xbd86e944	-0.06587461
161	0x3d014e4a	0.031568803
162	0xbd7c6873	-0.061623048
163	0x3dc08d59	0.0940196
164	0x3d703bb4	0.058650687
165	0x3c3794f7	0.01120495
166	0xbc5f9604	-0.013646606
167	0xbd948c4c	-0.07253322
168	0x3e576f53	0.2103856
169	0x3e0acbfb	0.13554375
170	0x3df6aee2	0.12045075
171	0xbe50cc79	-0.203905
172	0x3a665bc2	0.00087874767
173	0x3b9255aa	0.0044657784
174	0xbe78530c	-0.2425043
175	0x3e5cf04e	0.21576044
176	0xbe1285c2	-0.14308837
177	0x3dc420b7	0.09576552
178	0x3e1adaaa	0.15122476
179	0x3dcf81dc	0.101321906
180	0x3e2b6440	0.16737461
181	0xbe662eda	-0.2247881
182	0x3db7ba00	0.089710236
183	0x3e016fcc	0.12640303
184	0xbd5a7a2f	-0.05333918
185	0xbe2c74e9	-0.16841473
186	0xbe19d56c	-0.1502282
187	0x3de5ffba	0.112304166
188	0x3cd23712	0.025661025
189	0x3e392699	0.1808113
190	0xbcbac79e	-0.022800263
191	0xbdcc5b27	-0.099783234
192	0x3d147960	0.036248565
193	0xbe1b6886	-0.15176591
194	0xbd0ee636	-0.034887515
195	0x3d8b97a7	0.06816035
196	0x3e2b3796	0.16720423
197	0xbe4f6fc6	-0.20257482
198	0xbe392636	-0.18080983
199	0x3c610c90	0.013735905
200	0xbdc81a6e	-0.09770666
201	0xbccec8b5	-0.025242189
202	0xbd9f64d3	-0.077829026
203	0x3c2509d7	0.010073147
204	0xbd861131	-0.06546248
205	0x3e2746aa	0.1633555
206	0x3e28e7c6	0.16494665
207	0x3dcb638b	0.09931096
208	0xbd8ff940	-0.070299625
209	0x3d8c33c9	0.06845815
210	0x3dda03f1	0.10645283
211	0x3ca26e79	0.019828068
212	0xbe3702c7	-0.17872153
213	0x3caf1a74	0.021374919
214	0x3df08ac0	0.117452145
215	0xbe068dd1	-0.13140036
216	0xbd4dee8e	-0.05027633
217	0xbdc7dd53	-0.09759011
218	0x3df07b1b	0.117422305
219	0x3e2c8263	0.16846614
220	0xbdddb5ca	-0.10825689
221	0x3d122b97	0.0356861
222	0x3d7ab196	0.061204515
223	0x3db338ad	0.087510444
224	0xbe0642c7	-0.13111411
225	0x3d1f34d1	0.03886873
226	0x3e2a9077	0.16656671
227	0x3d59e240	0.053194284
228	0xbd260354	-0.040530518
229	0xbe2fccb1	-0.17167927
230	0x3e3fca9e	0.18729636
231	0x3b2c3a3b	0.0026279825
232	0x3e0e0632	0.13869551
233	0xbdd40e74	-0.10354319
234	0x3d41088e	0.0471273
235	0x3d0ecccf	0.03486329
236	0xbdb20fb5	-0.08694402
237	0x3d9ce440	0.07660723
238	0x3d832aa4	0.064046174
239	0xbe3f8ac5	-0.1870528
240	0xbc6f8360	-0.014618725
241	0xbd00b484	-0.031422153
242	0x3e0be508	0.13661587
243	0x3d0e5ee6	0.03475847
244	0xbe110067	-0.1416031
245	0xbcfb803f	-0.030700801
246	0x3e4c6b74	0.19962865
247	0x3c9a07d2	0.018802557
248	0x3e4bbee6	0.1989704
249	0x3c208703	0.009797814
250	0x3e03126a	0.12799993
251	0xbe23213d	-0.15930648
252	0x3e687520	0.2270093
253	0x3c13e41f	0.009026556
254	0xbd401151	-0.046891514
255	0x3dc1967b	0.0945253

backbone.csp2.bn1.bn.weight f4 [16]
0	0x3f6c3db5	0.9228166
1	0x3f5fb543	0.8738596
2	0x3f74b435	0.95587474
3	0x3f65c013	0.89746207
4	0x3f68783d	0.9080847
5	0x3f78a782	0.97130597
6	0x3f76d8fe	0.96424854
7	0x3f714852	0.9425098
8	0x3f81929b	1.0122865
9	0x3f786884	0.9703448
10	0x3f79b0be	0.9753531
11	0x3f5dfc01	0.8671265
12	0x3f63e500	0.890213
13	0x3f6bba82	0.92081463
14	0x3f6ea428	0.9321923
15	0x3f60eb83	0.8785936

backbone.csp2.bn1.bn.bias f4 [16]
0	0x3d0fc40b	0.03509907
1	0xbde07775	-0.109602846
2	0xbd6b447b	-0.057438355
3	0xbdaad623	-0.083416246
4	0xbd081f6d	-0.033233095
5	0xbdb56fce	-0.08859216
6	0x3c3baa69	0.011454203
7	0x3dd51f49	0.10406358
8	0xbdbd5d7d	-0.09246347
9	0x3d171eb6	0.036894523
10	0x3d15fce4	0.03661813
11	0x3cd49b26	0.025952887
12	0xbd70b137	-0.058762755
13	0xbc8abda9	-0.01693614
14	0xbd7bca9f	-0.06147253
15	0xbcebcae4	-0.02878327

backbone.csp2.bn1.bn.running_mean f4 [16]
0	0xbd11b67c	-0.03557442
1	0x3d8656c7	0.0655952
2	0x3deb5509	0.114908285
3	0x3dca7653	0.0988585
4	0x3db3e054	0.087830216
5	0x3daae03c	0.083435506
6	0x3d041f8c	0.032256648
7	0x3e09747d	0.13423343
8	0x3c26dbb1	0.010184214
9	0xbcee7ab3	-0.029111242
10	0xbdbcc359	-0.09216947
11	0xbdfe21bd	-0.12408779
12	0xbd9fc300	-0.07800865
13	0x3e22082c	0.1582343
14	0xbd040eb6	-0.032240592
15	0xbe3d5d0c	-0.18492526

backbone.csp2.bn1.bn.running_var f4 [16]
0	0x3ea2ea98	0.31819606
1	0x3e867747	0.26262876
2	0x3e6db53f	0.23213671
3	0x3e23ec24	0.16008049
4	0x3e6427d7	0.22280823
5	0x3e5b3704	0.21407706
6	0x3de0594f	0.10954534
7	0x3e2f098e	0.17093489
8	0x3e6f3703	0.23360829
9	0x3e49e51e	0.19716308
10	0x3dfc83f8	0.123298585
11	0x3e7b4aa1	0.24540187
12	0x3e23cb93	0.15995626
13	0x3e4c60bb	0.19958775
14	0x3e523868	0.2052933
15	0x3e7a4abf	0.24442576
